Assets/BlazeFace/ONNX/face_detection_front_128x128_barracuda.onnx (onnx, 442005 bytes, 58 tensors)

StatefulPartitionedCall/functional_1/depthwise_conv2d_9/depthwise/ReadVariableOp:0 f4 [72, 1, 3, 3]
-1.0927734 -1.5244141 -0.42236328 -0.2454834 -1.0478516 -1.2070312 0.19750977 -0.41918945
-0.5253906 -0.47045898 -0.13720703 -0.23657227 -0.35327148 -0.99121094 -1.0498047 0.054229736
-0.6611328 -1.3251953 0.8305664 0.48901367 -0.18225098 -0.06591797 0.68066406 0.54248047
-0.2524414 -0.4267578 0.6748047 0.81640625 0.23474121 0.011856079 0.15075684 1.375
0.17321777 0.40649414 0.29052734 0.31689453 1.7861328 1.8232422 0.115234375 3.3261719
0.10406494 0.1484375 1.0244141 -0.46069336 -0.2644043 -0.3330078 -0.5073242 -0.3918457
-0.1083374 2.2910156 -0.16430664 -0.030593872 0.067871094 0.10266113 -0.10852051 -0.81591797
-0.921875 -0.08074951 -0.6513672 0.07574463 -0.21411133 0.051483154 -0.008399963 -0.24194336
-0.107788086 -0.4494629 -1.1513672 -3.5351562 -0.47973633 -0.91259766 -0.72265625 0.046783447
1.0957031 0.68408203 0.0970459 0.6645508 0.9350586 -0.025009155 -0.45263672 -0.056640625
-0.010986328 0.093322754 0.74072266 0.8876953 -0.2775879 1.0908203 1.1347656 -0.027008057
-0.008453369 0.42626953 0.44458008 0.3540039 0.37353516 1.4091797 0.34448242 -0.83691406
1.8564453 -0.70703125 -2.2988281 0.7480469 -0.07421875 0.013534546 0.26733398 -1.0732422
-0.17297363 -0.13305664 -0.19128418 -0.14697266 -1.3046875 0.026809692 -1.3847656 0.32592773
2.6503906 -0.40600586 -0.8564453 -0.5151367 -1.5605469 0.15637207 -0.36645508 -1.4570312
0.90185547 0.16271973 -0.5361328 0.5708008 0.75390625 0.33422852 -3.2539062 -1.3310547
0.5678711 0.2824707 -0.27270508 0.14196777 4.0664062 1.5283203 -0.96777344 -0.54589844
-0.2310791 0.2548828 0.2541504 -1.8808594 0.048034668 1.4892578 0.84521484 0.0892334
0.040008545 0.19360352 1.1425781 0.12536621 2.6152344 1.1806641 1.1035156 1.3876953
1.0175781 -0.9082031 -0.65234375 -0.9277344 -0.004436493 1.4707031 0.44921875 -0.6948242
0.0057296753 0.29418945 -0.8154297 -1.4970703 -1.0478516 -0.30249023 -0.36767578 -0.29541016
0.97314453 0.7685547 0.22497559 -0.21972656 0.13110352 -0.25708008 -0.13171387 1.4248047
-0.17663574 -0.64697266 -0.36914062 -0.51708984 0.22668457 -0.40673828 -0.17578125 0.028121948
-0.9169922 -0.30688477 1.1630859 0.66259766 0.40942383 0.28271484 0.12408447 0.22937012
0.00983429 -2.1328125 0.21496582 0.16540527 0.23986816 0.17443848 -0.20617676 -0.55322266
-0.8852539 -0.41259766 -1.1621094 -0.8540039 -0.52001953 -0.34448242 -0.3161621 0.06304932
0.47387695 0.60058594 0.34570312 1.0292969 0.2298584 -0.35913086 -0.14501953 -0.35375977
0.88720703 -0.5961914 -0.69921875 2.1425781 0.28198242 -1.1162109 0.77197266 0.5332031
-0.5205078 0.13696289 0.5878906 0.8022461 -0.0024375916 1.2626953 0.8432617 -0.038635254
0.19714355 0.41210938 -0.32006836 0.25073242 0.31079102 -0.23339844 -2.4355469 0.4074707
-0.25976562 -0.076171875 0.17382812 -0.81689453 -1.0654297 -0.30371094 -0.8208008 -4.0664062
-0.022476196 0.36547852 -0.036712646 -0.08300781 0.51660156 0.20458984 0.4597168 -0.23925781
00000000: 00e0 8bbf 0020 c3bf 0040 d8be 0060 7bbe
00000010: 0020 86bf 0080 9abf 0040 4a3e 00a0 d6be
00000020: 0080 06bf 00e0 f0be 0080 0cbe 0040 72be
00000030: 00e0 b4be 00c0 7dbf 0060 86bf 0020 5e3d
00000040: 0040 29bf 00a0 a9bf 00a0 543f 0060 fa3e
00000050: 00a0 3abe 0000 87bd 0040 2e3f 00e0 0a3f
00000060: 0040 81be 0080 dabe 00c0 2c3f 0000 513f
00000070: 0060 703e 0040 423c 0060 1a3e 0000 b03f
00000080: 0060 313e 0020 d03e 00c0 943e 0040 a23e
00000090: 00a0 e43f 0060 e93f 0000 ec3d 00e0 5440
000000a0: 0020 d53d 0000 183e 0020 833f 00e0 ebbe
000000b0: 0060 87be 0080 aabe 00e0 01bf 00a0 c8be
000000c0: 00e0 ddbd 00a0 1240 0040 28be 00a0 fabc
000000d0: 0000 8b3d 0040 d23d 0040 debd 00e0 50bf
000000e0: 0000 6cbf 0060 a5bd 00c0 26bf 0020 9b3d
000000f0: 0040 5bbe 00e0 523d 00a0 09bc 00c0 77be
00000100: 00c0 dcbd 0020 e6be 0060 93bf 0040 62c0
00000110: 00a0 f5be 00a0 69bf 0000 39bf 00a0 3f3d
00000120: 0040 8c3f 0020 2f3f 00c0 c63d 0020 2a3f
00000130: 0060 6f3f 00e0 ccbc 00c0 e7be 0000 68bd
00000140: 0000 34bc 0020 bf3d 00a0 3d3f 0040 633f
00000150: 0020 8ebe 00a0 8b3f 0040 913f 0040 ddbc
00000160: 0080 0abc 0040 da3e 00a0 e33e 0040 b53e
00000170: 0040 bf3e 0060 b43f 0060 b03e 0040 56bf
00000180: 00a0 ed3f 0000 35bf 0020 13c0 0080 3f3f
00000190: 0000 98bd 00c0 5d3c 00e0 883e 0060 89bf
000001a0: 0020 31be 0040 08be 00e0 43be 0080 16be
000001b0: 0000 a7bf 00a0 db3c 0040 b1bf 00e0 a63e
000001c0: 00a0 2940 00e0 cfbe 0040 5bbf 00e0 03bf
000001d0: 00c0 c7bf 0020 203e 00a0 bbbe 0080 babf
000001e0: 00e0 663f 00a0 263e 0040 09bf 0020 123f
000001f0: 0000 413f 0020 ab3e 0040 50c0 0060 aabf
00000200: 0060 113f 00a0 903e 00a0 8bbe 0060 113e
00000210: 0020 8240 00a0 c33f 00c0 77bf 00c0 0bbf
00000220: 00a0 6cbe 0080 823e 0020 823e 00c0 f0bf
00000230: 00c0 443d 00a0 be3f 0060 583f 00c0 b63d
00000240: 00e0 233d 0040 463e 0040 923f 0060 003e
00000250: 0060 2740 0020 973f 0040 8d3f 00a0 b13f
00000260: 0040 823f 0080 68bf 0000 27bf 0080 6dbf
00000270: 0060 91bb 0040 bc3f 0000 e63e 00e0 31bf
00000280: 00c0 bb3b 00a0 963e 00c0 50bf 00a0 bfbf
00000290: 0020 86bf 00e0 9abe 0040 bcbe 0040 97be
000002a0: 0020 793f 00c0 443f 0060 663e 0000 61be
000002b0: 0040 063e 00a0 83be 00e0 06be 0060 b63f
000002c0: 00e0 34be 00a0 25bf 0000 bdbe 0060 04bf
000002d0: 0020 683e 0040 d0be 0000 34be 0060 e63c
000002e0: 00c0 6abf 0020 9dbe 00e0 943f 00a0 293f
000002f0: 00a0 d13e 00c0 903e 0020 fe3d 00e0 6a3e
00000300: 0020 213c 0080 08c0 0020 5c3e 0060 293e
00000310: 00a0 753e 00a0 323e 0020 53be 00a0 0dbf
00000320: 00a0 62bf 0040 d3be 00c0 94bf 00a0 5abf
00000330: 0020 05bf 0060 b0be 00e0 a1be 0020 813d
00000340: 00a0 f23e 00c0 193f 0000 b13e 00c0 833f
00000350: 0060 6b3e 00e0 b7be 0080 14be 0020 b5be
00000360: 0020 633f 00a0 18bf 0000 33bf 0020 0940
00000370: 0060 903e 00e0 8ebf 00a0 453f 0080 083f
00000380: 0040 05bf 0040 0c3e 0080 163f 0060 4d3f
00000390: 00c0 1fbb 00a0 a13f 00e0 573f 0040 1ebd
000003a0: 00e0 493e 0000 d33e 00e0 a3be 0060 803e
000003b0: 0020 9f3e 0000 6fbe 00e0 1bc0 00a0 d03e
000003c0: 0000 85be 0000 9cbd 0000 323e 0020 51bf
000003d0: 0060 88bf 0080 9bbe 0020 52bf 0020 82c0
000003e0: 0020 b8bc 0020 bb3e 0060 16bd 0000 aabd
000003f0: 0040 043f 0080 513e 0060 eb3e 0000 75be

StatefulPartitionedCall/functional_1/depthwise_conv2d_8/depthwise/ReadVariableOp:0 f4 [64, 1, 3, 3]
-0.39624023 -0.7026367 -1.4072266 -0.012435913 1.0556641 -1.5839844 -0.16442871 0.13537598
-0.5209961 0.9555664 -0.4230957 -0.6142578 0.2442627 1.4492188 -0.8120117 -0.05581665
0.2861328 -0.625 -0.59765625 0.20507812 0.030593872 -1.5605469 0.4326172 0.29589844
0.023208618 -0.68896484 -0.29614258 0.78808594 -0.12176514 0.10858154 1.0361328 0.5541992
-0.21801758 0.7529297 0.024993896 -0.32739258 -0.9814453 -1.7441406 -2.7382812 -0.29223633
-0.31030273 -0.38500977 -1.1796875 -0.1665039 -0.23547363 -1.3300781 -0.73291016 0.4260254
-0.6191406 -0.40942383 0.61083984 0.38330078 0.5317383 -0.11230469 -0.2088623 -1.0595703
-1.1582031 0.014228821 0.15356445 -0.18615723 0.31323242 0.122924805 0.16381836 1.5019531
-0.5332031 -0.7192383 0.3708496 -0.85302734 0.06781006 0.087402344 0.171875 0.108947754
-1.6767578 -0.49780273 0.24719238 -1.4267578 1.2607422 0.14099121 -0.6147461 -0.11053467
0.047729492 0.59375 0.28735352 -0.63720703 0.9453125 1.6298828 -0.70996094 0.1973877
0.13085938 -1.2070312 1.5751953 1.3925781 1.0576172 1.2734375 2.4765625 0.4104004
1.0048828 0.24645996 0.119628906 0.7080078 0.8935547 0.20715332 0.32128906 1.3076172
0.23022461 0.31860352 0.30615234 0.103637695 1.6679688 1.7880859 0.62402344 2.3378906
3.328125 1.9140625 0.52001953 1.2675781 0.5595703 0.22338867 -0.0234375 -0.103027344
-0.010253906 2.3203125 -0.24194336 0.037719727 -0.0028038025 -0.2841797 -3.5878906 -2.8789062
-0.8598633 -4.0664062 -3.4921875 -0.7705078 -2.0761719 -1.6132812 -0.81103516 0.23181152
0.109802246 0.6088867 0.9140625 1.4873047 0.46899414 0.71484375 1.1513672 0.8144531
-0.95458984 -0.43408203 -0.70996094 -0.7011719 -3.0683594 -0.6376953 -0.28588867 -0.3474121
-0.32006836 -0.7602539 0.6118164 0.117370605 -1.7324219 2.2773438 1.453125 -0.8173828
0.105163574 0.82470703 -0.875 -1.5214844 -1.1132812 -2.203125 -1.5761719 0.51904297
-0.14855957 0.60058594 1.3417969 -0.3088379 -0.60546875 -0.58984375 0.014816284 -0.6796875
-0.84472656 -0.09576416 -0.11193848 -0.15270996 0.018356323 0.8754883 1.6748047 0.47143555
-0.08026123 -0.2253418 1.8671875 0.36328125 0.55566406 0.55322266 0.49536133 0.36865234
0.7392578 0.55615234 -0.26367188 0.71777344 0.4580078 0.13256836 1.0732422 1.0859375
-0.5234375 0.7631836 0.5053711 -0.23669434 -0.44848633 -0.5136719 0.16381836 -0.42407227
-1.0859375 -0.22167969 -0.02368164 -1.6923828 -0.29345703 -0.13891602 -0.31054688 -0.609375
-2.4101562 -2.4238281 -1.3164062 -0.9770508 -0.5214844 -0.82910156 0.32373047 1.1894531
0.36450195 0.32495117 -0.055847168 -0.111572266 -0.06854248 -1.5673828 -0.05718994 -0.040771484
-0.3713379 -0.022766113 0.23205566 -0.14855957 -0.5175781 0.9794922 1.3916016 -0.4267578
0.7548828 0.5703125 0.117126465 0.052703857 0.30371094 0.78759766 -0.09118652 2.2753906
0.37451172 -0.074279785 -0.023590088 0.68603516 0.64501953 0.53564453 0.26611328 0.8671875
00000000: 00e0 cabe 00e0 33bf 0020 b4bf 00c0 4bbc
00000010: 0020 873f 00c0 cabf 0060 28be 00a0 0a3e
00000020: 0060 05bf 00a0 743f 00a0 d8be 0040 1dbf
00000030: 0020 7a3e 0080 b93f 00e0 4fbf 00a0 64bd
00000040: 0080 923e 0000 20bf 0000 19bf 0000 523e
00000050: 00a0 fa3c 00c0 c7bf 0080 dd3e 0080 973e
00000060: 0020 be3c 0060 30bf 00a0 97be 00c0 493f
00000070: 0060 f9bd 0060 de3d 00a0 843f 00e0 0d3f
00000080: 0040 5fbe 00c0 403f 00c0 cc3c 00a0 a7be
00000090: 0040 7bbf 0040 dfbf 0040 2fc0 00a0 95be
000000a0: 00e0 9ebe 0020 c5be 0000 97bf 0080 2abe
000000b0: 0020 71be 0040 aabf 00a0 3bbf 0020 da3e
000000c0: 0080 1ebf 00a0 d1be 0060 1c3f 0040 c43e
000000d0: 0020 083f 0000 e6bd 00e0 55be 00a0 87bf
000000e0: 0040 94bf 0020 693c 0040 1d3e 00a0 3ebe
000000f0: 0060 a03e 00c0 fb3d 00c0 273e 0040 c03f
00000100: 0080 08bf 0020 38bf 00e0 bd3e 0060 5abf
00000110: 00e0 8a3d 0000 b33d 0000 303e 0020 df3d
00000120: 00a0 d6bf 00e0 febe 0020 7d3e 00a0 b6bf
00000130: 0060 a13f 0060 103e 0060 1dbf 0060 e2bd
00000140: 0080 433d 0000 183f 0020 933e 0020 23bf
00000150: 0000 723f 00a0 d03f 00c0 35bf 0020 4a3e
00000160: 0000 063e 0080 9abf 00a0 c93f 0040 b23f
00000170: 0060 873f 0000 a33f 0080 1e40 0020 d23e
00000180: 00a0 803f 0060 7c3e 0000 f53d 0040 353f
00000190: 00c0 643f 0020 543e 0080 a43e 0060 a73f
000001a0: 00c0 6b3e 0020 a33e 00c0 9c3e 0040 d43d
000001b0: 0080 d53f 00e0 e43f 00c0 1f3f 00a0 1540
000001c0: 0000 5540 0000 f53f 0020 053f 0040 a23f
000001d0: 0040 0f3f 00c0 643e 0000 c0bc 0000 d3bd
000001e0: 0000 28bc 0080 1440 00c0 77be 0080 1a3d
000001f0: 00c0 37bb 0080 91be 00a0 65c0 0040 38c0
00000200: 0020 5cbf 0020 82c0 0080 5fc0 0040 45bf
00000210: 00e0 04c0 0080 cebf 00a0 4fbf 0060 6d3e
00000220: 00e0 e03d 00e0 1b3f 0000 6a3f 0060 be3f
00000230: 0020 f03e 0000 373f 0060 933f 0080 503f
00000240: 0060 74bf 0040 debe 00c0 35bf 0080 33bf
00000250: 0060 44c0 0040 23bf 0060 92be 00e0 b1be
00000260: 00e0 a3be 00a0 42bf 00a0 1c3f 0060 f03d
00000270: 00c0 ddbf 00c0 1140 0000 ba3f 0040 51bf
00000280: 0060 d73d 0020 533f 0000 60bf 00c0 c2bf
00000290: 0080 8ebf 0000 0dc0 00c0 c9bf 00e0 043f
000002a0: 0020 18be 00c0 193f 00c0 ab3f 0020 9ebe
000002b0: 0000 1bbf 0000 17bf 00c0 723c 0000 2ebf
000002c0: 0040 58bf 0020 c4bd 0040 e5bd 0060 1cbe
000002d0: 0060 963c 0020 603f 0060 d63f 0060 f13e
000002e0: 0060 a4bd 00c0 66be 0000 ef3f 0000 ba3e
000002f0: 0040 0e3f 00a0 0d3f 00a0 fd3e 00c0 bc3e
00000300: 0040 3d3f 0060 0e3f 0000 87be 00c0 373f
00000310: 0080 ea3e 00c0 073e 0060 893f 0000 8b3f
00000320: 0000 06bf 0060 433f 0060 013f 0060 72be
00000330: 00a0 e5be 0080 03bf 00c0 273e 0020 d9be
00000340: 0000 8bbf 0000 63be 0000 c2bc 00a0 d8bf
00000350: 0040 96be 0040 0ebe 0000 9fbe 0000 1cbf
00000360: 0040 1ac0 0020 1bc0 0080 a8bf 0020 7abf
00000370: 0080 05bf 0040 54bf 00c0 a53e 0040 983f
00000380: 00a0 ba3e 0060 a63e 00c0 64bd 0080 e4bd
00000390: 0060 8cbd 00a0 c8bf 0040 6abd 0000 27bd
000003a0: 0020 bebe 0080 babc 00a0 6d3e 0020 18be
000003b0: 0080 04bf 00c0 7a3f 0020 b23f 0080 dabe
000003c0: 0040 413f 0000 123f 00e0 ef3d 00e0 573d
000003d0: 0080 9b3e 00a0 493f 00c0 babd 00a0 1140
000003e0: 00c0 bf3e 0020 98bd 0040 c1bc 00a0 2f3f
000003f0: 0020 253f 0020 093f 0040 883e 0000 5e3f

StatefulPartitionedCall/functional_1/depthwise_conv2d_7/depthwise/ReadVariableOp:0 f4 [56, 1, 3, 3]
1.4677734 2.015625 -0.34423828 1.4980469 -0.51904297 -0.7890625 0.71191406 -0.17163086
0.39501953 0.15698242 0.09118652 0.16235352 1.0771484 0.039398193 0.22546387 0.87890625
0.8173828 0.17053223 0.20495605 0.15209961 -1.0058594 0.36791992 1.3925781 -1.6318359
0.09039307 0.20935059 -0.55126953 0.18395996 1.0 0.43188477 -0.37670898 0.5395508
0.8354492 -0.5942383 -0.73535156 0.19067383 -0.06488037 0.21984863 0.25317383 0.029144287
1.9980469 0.25268555 0.40527344 0.22460938 1.1005859 1.0791016 1.4765625 1.0380859
-0.023757935 -0.8520508 0.5473633 0.15136719 0.28442383 0.4675293 0.34033203 1.2148438
-0.37695312 -0.45776367 -0.59765625 -0.32739258 -0.16442871 -0.85595703 -0.2553711 1.1621094
0.8847656 0.36035156 2.0039062 1.8730469 -0.28076172 0.34521484 -0.48510742 -0.29858398
-0.4946289 -1.5351562 -0.30200195 -0.09875488 1.9589844 0.9770508 0.31152344 0.92578125
0.22631836 0.7685547 -0.020217896 0.5883789 0.5136719 0.6801758 0.4633789 1.1269531
0.6303711 0.77197266 0.8828125 -0.38012695 -0.97558594 0.26123047 0.15515137 -1.5439453
-0.56152344 -0.42358398 -0.07122803 0.75341797 -1.3945312 -0.23632812 -0.06085205 -1.4169922
-0.2355957 -0.06738281 0.014434814 -0.017059326 -0.7705078 -0.07324219 -1.6552734 -0.33081055
0.13452148 -0.5341797 0.5058594 0.40649414 0.3466797 -0.96435547 0.39770508 0.08807373
-0.96435547 -0.16760254 -0.37646484 -0.55029297 -0.5151367 -0.15429688 0.34179688 0.5283203
0.18444824 0.45874023 1.9667969 0.34570312 0.32055664 0.3461914 0.10284424 0.00017976761
-0.08795166 0.0947876 0.43310547 2.2617188 -0.2927246 -0.17102051 0.35131836 -0.30297852
-0.19348145 -1.6865234 -0.6621094 0.67285156 -0.32739258 -0.6611328 0.45410156 0.80029297
-0.016571045 0.022994995 -0.5839844 0.045837402 -0.006500244 3.0820312 0.118896484 0.41845703
1.0527344 0.34350586 0.39868164 0.953125 0.8125 0.086364746 2.7421875 2.015625
-0.5727539 -0.20507812 0.5961914 1.2148438 -0.031463623 -0.5751953 0.62646484 0.5810547
-1.2207031 -0.08117676 -0.89941406 -0.99365234 0.1496582 -0.3227539 -0.1418457 1.1220703
0.0881958 -0.60253906 1.1533203 1.4511719 1.0048828 0.042907715 0.74609375 1.0146484
-0.16467285 -1.4511719 0.56347656 -0.43603516 -0.23010254 0.1352539 -0.49926758 0.79248047
1.2001953 -0.082092285 -1.4482422 0.89941406 -0.42358398 -0.5571289 0.20031738 -0.05960083
-1.4433594 -0.9091797 0.09887695 -1.3017578 -0.04208374 -0.4350586 -0.3112793 -0.22229004
0.062194824 -0.22546387 0.0513916 0.40673828 -3.5253906 -0.29492188 -0.012199402 -0.14916992
-0.016906738 0.6982422 -0.18737793 0.52246094 0.68652344 -0.23779297 -1.0810547 0.7607422
0.14880371 -0.37719727 0.9511719 1.7626953 0.3659668 0.3046875 1.1171875 0.27734375
-0.12524414 -0.60498047 -0.08343506 0.2758789 0.0914917 -0.28710938 -0.11279297 -1.015625
0.05331421 -0.265625 -1.2675781 -1.4892578 -0.12524414 0.26660156 0.3930664 -0.8901367
00000000: 00e0 bb3f 0000 0140 0040 b0be 00c0 bf3f
00000010: 00e0 04bf 0000 4abf 0040 363f 00c0 2fbe
00000020: 0040 ca3e 00c0 203e 00c0 ba3d 0040 263e
00000030: 00e0 893f 0060 213d 00e0 663e 0000 613f
00000040: 0040 513f 00a0 2e3e 00e0 513e 00c0 1b3e
00000050: 00c0 80bf 0060 bc3e 0040 b23f 00e0 d0bf
00000060: 0020 b93d 0060 563e 0020 0dbf 0060 3c3e
00000070: 0000 803f 0020 dd3e 00e0 c0be 0020 0a3f
00000080: 00e0 553f 0020 18bf 0040 3cbf 0040 433e
00000090: 00e0 84bd 0020 613e 00a0 813e 00c0 ee3c
000000a0: 00c0 ff3f 0060 813e 0080 cf3e 0000 663e
000000b0: 00e0 8c3f 0020 8a3f 0000 bd3f 00e0 843f
000000c0: 00a0 c2bc 0020 5abf 0020 0c3f 0000 1b3e
000000d0: 00a0 913e 0060 ef3e 0040 ae3e 0080 9b3f
000000e0: 0000 c1be 0060 eabe 0000 19bf 00a0 a7be
000000f0: 0060 28be 0020 5bbf 00c0 82be 00c0 943f
00000100: 0080 623f 0080 b83e 0040 0040 00c0 ef3f
00000110: 00c0 8fbe 00c0 b03e 0060 f8be 00e0 98be
00000120: 0040 fdbe 0080 c4bf 00a0 9abe 0040 cabd
00000130: 00c0 fa3f 0020 7a3f 0080 9f3e 0000 6d3f
00000140: 00c0 673e 00c0 443f 00a0 a5bc 00a0 163f
00000150: 0080 033f 0020 2e3f 0040 ed3e 0040 903f
00000160: 0060 213f 00a0 453f 0000 623f 00a0 c2be
00000170: 00c0 79bf 00c0 853e 00e0 1e3e 00a0 c5bf
00000180: 00c0 0fbf 00e0 d8be 00e0 91bd 00e0 403f
00000190: 0080 b2bf 0000 72be 0040 79bd 0060 b5bf
000001a0: 0040 71be 0000 8abd 0080 6c3c 00c0 8bbc
000001b0: 0040 45bf 0000 96bd 00e0 d3bf 0060 a9be
000001c0: 00c0 093e 00c0 08bf 0080 013f 0020 d03e
000001d0: 0080 b13e 00e0 76bf 00a0 cb3e 0060 b43d
000001e0: 00e0 76bf 00a0 2bbe 00c0 c0be 00e0 0cbf
000001f0: 00e0 03bf 0000 1ebe 0000 af3e 0040 073f
00000200: 00e0 3c3e 00e0 ea3e 00c0 fb3f 0000 b13e
00000210: 0020 a43e 0040 b13e 00a0 d23d 0080 3c39
00000220: 0020 b4bd 0020 c23d 00c0 dd3e 00c0 1040
00000230: 00e0 95be 0020 2fbe 00e0 b33e 0020 9bbe
00000240: 0020 46be 00e0 d7bf 0080 29bf 0040 2c3f
00000250: 00a0 a7be 0040 29bf 0080 e83e 00e0 4c3f
00000260: 00c0 87bc 0060 bc3c 0080 15bf 00c0 3b3d
00000270: 0000 d5bb 0040 4540 0080 f33d 0040 d63e
00000280: 00c0 863f 00e0 af3e 0020 cc3e 0000 743f
00000290: 0000 503f 00e0 b03d 0080 2f40 0000 0140
000002a0: 00a0 12bf 0000 52be 00a0 183f 0080 9b3f
000002b0: 00e0 00bd 0040 13bf 0060 203f 00c0 143f
000002c0: 0040 9cbf 0040 a6bd 0040 66bf 0060 7ebf
000002d0: 0040 193e 0040 a5be 0040 11be 00a0 8f3f
000002e0: 00a0 b43d 0040 1abf 00a0 933f 00c0 b93f
000002f0: 00a0 803f 00c0 2f3d 0000 3f3f 00e0 813f
00000300: 00a0 28be 00c0 b9bf 0040 103f 0040 dfbe
00000310: 00a0 6bbe 0080 0a3e 00a0 ffbe 00e0 4a3f
00000320: 00a0 993f 0020 a8bd 0060 b9bf 0040 663f
00000330: 00e0 d8be 00a0 0ebf 0020 4d3e 0020 74bd
00000340: 00c0 b8bf 00c0 68bf 0080 ca3d 00a0 a6bf
00000350: 0060 2cbd 00c0 debe 0060 9fbe 00a0 63be
00000360: 00c0 7e3d 00e0 66be 0080 523d 0040 d03e
00000370: 00a0 61c0 0000 97be 00e0 47bc 00c0 18be
00000380: 0080 8abc 00c0 323f 00e0 3fbe 00c0 053f
00000390: 00c0 2f3f 0080 73be 0060 8abf 00c0 423f
000003a0: 0060 183e 0020 c1be 0080 733f 00a0 e13f
000003b0: 0060 bb3e 0000 9c3e 0000 8f3f 0000 8e3e
000003c0: 0040 00be 00e0 1abf 00e0 aabd 0040 8d3e
000003d0: 0060 bb3d 0000 93be 0000 e7bd 0000 82bf
000003e0: 0060 5a3d 0000 88be 0040 a2bf 00a0 bebf
000003f0: 0040 00be 0080 883e 0040 c93e 00e0 63bf

StatefulPartitionedCall/functional_1/depthwise_conv2d_6/depthwise/ReadVariableOp:0 f4 [48, 1, 3, 3]
0.97998047 0.75878906 -0.60546875 -0.15673828 -1.1826172 -0.4873047 -1.1660156 -1.2880859
-0.30078125 0.7207031 1.0488281 0.703125 0.48413086 0.9633789 0.08709717 -0.036987305
-0.23828125 -0.011932373 0.17480469 1.0146484 0.2298584 0.9946289 1.9638672 0.074157715
0.39111328 0.3552246 -0.1586914 -0.035980225 -1.1142578 0.58691406 -0.09295654 1.0244141
0.9941406 0.18737793 1.0234375 -0.14135742 -0.7524414 -2.328125 -1.0634766 -0.12548828
0.24414062 0.13769531 0.8510742 0.3088379 0.030166626 -0.3161621 0.16320801 0.22265625
-0.29760742 -2.3222656 -0.16699219 -0.59814453 -0.32641602 -0.46362305 -0.03729248 1.3261719
1.3955078 -0.44604492 0.21350098 0.8027344 0.08392334 -0.079833984 -0.054229736 0.5805664
-0.30688477 -0.44335938 0.51220703 -0.87353516 -1.5703125 0.32666016 0.05911255 -0.46801758
-0.4333496 -1.1777344 -0.49609375 -0.37524414 -2.2871094 -0.09576416 -0.4494629 -0.16796875
-0.07281494 -0.76708984 0.3293457 -0.4345703 -1.5703125 1.1162109 1.6347656 -0.7729492
-0.8515625 0.14685059 -0.8828125 -0.93066406 0.05960083 -1.0048828 -1.0068359 -0.6225586
-0.40771484 -0.18273926 -0.81347656 1.2597656 0.70751953 0.073791504 0.3671875 0.76123047
0.3076172 0.43896484 0.44604492 0.28076172 0.62597656 0.80859375 0.6723633 -0.016845703
-2.2207031 0.22729492 -0.97216797 -0.4050293 0.062561035 0.5810547 0.79003906 1.0625
0.64160156 0.3059082 -0.22155762 0.14978027 -1.6855469 -0.55810547 -0.7788086 -0.88183594
-1.4482422 -0.12609863 -0.39404297 -0.7734375 -0.12475586 0.19458008 0.3491211 0.023605347
0.91503906 -0.10827637 -0.60595703 1.3847656 -0.24511719 -1.0 -1.4013672 -0.4296875
1.0517578 1.0898438 0.97509766 0.95751953 0.45922852 0.3269043 0.44360352 0.092285156
-0.07635498 1.3701172 1.0039062 0.22729492 0.91015625 0.9169922 -0.35424805 -1.4638672
-0.9091797 0.33129883 -0.013885498 -0.25952148 -0.3425293 -0.12243652 -0.2286377 -0.7680664
0.9316406 2.4472656 -0.5209961 -0.5263672 -1.2753906 -0.14880371 0.30932617 -1.9677734
-0.22216797 0.38891602 0.48266602 0.68066406 0.6923828 -0.038208008 -0.8100586 0.04006958
-1.8740234 -1.1328125 0.097473145 0.30908203 0.5595703 -0.48535156 -0.64160156 0.15454102
-0.7602539 -1.8652344 -0.2824707 -0.24963379 -0.38012695 -0.103393555 1.4267578 1.3642578
0.70947266 0.9741211 -0.018356323 0.59228516 0.48217773 0.26416016 0.22302246 0.77246094
1.1904297 -0.24536133 0.18884277 -0.7006836 -1.2617188 0.32104492 0.033447266 -0.6069336
-0.5336914 0.19470215 -0.45581055 0.79541016 1.1689453 0.29370117 0.7607422 0.029067993
-0.36645508 -0.31445312 0.19787598 1.4267578 -0.30688477 0.5102539 1.5419922 0.51464844
-0.020599365 -0.06317139 -0.13305664 0.98876953 1.5634766 -0.5234375 0.8149414 1.2617188
-0.1459961 -0.39135742 0.52441406 -1.25 -1.5859375 0.058044434 -1.2119141 -0.32177734
0.19433594 -0.42700195 0.06768799 0.42138672 1.4980469 0.39672852 -0.8208008 1.4023438
00000000: 00e0 7a3f 0040 423f 0000 1bbf 0080 20be
00000010: 0060 97bf 0080 f9be 0040 95bf 00e0 a4bf
00000020: 0000 9abe 0080 383f 0040 863f 0000 343f
00000030: 00e0 f73e 00a0 763f 0060 b23d 0080 17bd
00000040: 0000 74be 0080 43bc 0000 333e 00e0 813f
00000050: 0060 6b3e 00a0 7e3f 0060 fb3f 00e0 973d
00000060: 0040 c83e 00e0 b53e 0080 22be 0060 13bd
00000070: 00a0 8ebf 0040 163f 0060 bebd 0020 833f
00000080: 0080 7e3f 00e0 3f3e 0000 833f 00c0 10be
00000090: 00a0 40bf 0000 15c0 0020 88bf 0080 00be
000000a0: 0000 7a3e 0000 0d3e 00e0 593f 0020 9e3e
000000b0: 0020 f73c 00e0 a1be 0020 273e 0000 643e
000000c0: 0060 98be 00a0 14c0 0000 2bbe 0020 19bf
000000d0: 0020 a7be 0060 edbe 00c0 18bd 00c0 a93f
000000e0: 00a0 b23f 0060 e4be 00a0 5a3e 0080 4d3f
000000f0: 00e0 ab3d 0080 a3bd 0020 5ebd 00a0 143f
00000100: 0020 9dbe 0000 e3be 0020 033f 00a0 5fbf
00000110: 0000 c9bf 0040 a73e 0020 723d 00a0 efbe
00000120: 00e0 ddbe 00c0 96bf 0000 febe 0020 c0be
00000130: 0060 12c0 0020 c4bd 0020 e6be 0000 2cbe
00000140: 0020 95bd 0060 44bf 00a0 a83e 0080 debe
00000150: 0000 c9bf 00e0 8e3f 0040 d13f 00e0 45bf
00000160: 0000 5abf 0060 163e 0000 62bf 0040 6ebf
00000170: 0020 743d 00a0 80bf 00e0 80bf 0060 1fbf
00000180: 00c0 d0be 0020 3bbe 0040 50bf 0040 a13f
00000190: 0020 353f 0020 973d 0000 bc3e 00e0 423f
000001a0: 0080 9d3e 00c0 e03e 0060 e43e 00c0 8f3e
000001b0: 0040 203f 0000 4f3f 0020 2c3f 0000 8abc
000001c0: 0020 0ec0 00c0 683e 00e0 78bf 0060 cfbe
000001d0: 0020 803d 00c0 143f 0040 4a3f 0000 883f
000001e0: 0040 243f 00a0 9c3e 00e0 62be 0060 193e
000001f0: 00c0 d7bf 00e0 0ebf 0060 47bf 00c0 61bf
00000200: 0060 b9bf 0020 01be 00c0 c9be 0000 46bf
00000210: 0080 ffbd 0040 473e 00c0 b23e 0060 c13c
00000220: 0040 6a3f 00c0 ddbd 0020 1bbf 0040 b13f
00000230: 0000 7bbe 0000 80bf 0060 b3bf 0000 dcbe
00000240: 00a0 863f 0080 8b3f 00a0 793f 0020 753f
00000250: 0020 eb3e 0060 a73e 0020 e33e 0000 bd3d
00000260: 0060 9cbd 0060 af3f 0080 803f 00c0 683e
00000270: 0000 693f 00c0 6a3f 0060 b5be 0060 bbbf
00000280: 00c0 68bf 00a0 a93e 0080 63bc 00e0 84be
00000290: 0060 afbe 00c0 fabd 0020 6abe 00a0 44bf
000002a0: 0080 6e3f 00a0 1c40 0060 05bf 00c0 06bf
000002b0: 0040 a3bf 0060 18be 0060 9e3e 00e0 fbbf
000002c0: 0080 63be 0020 c73e 0020 f73e 0040 2e3f
000002d0: 0040 313f 0080 1cbd 0060 4fbf 0020 243d
000002e0: 00e0 efbf 0000 91bf 00a0 c73d 0040 9e3e
000002f0: 0040 0f3f 0080 f8be 0040 24bf 0040 1e3e
00000300: 00a0 42bf 00c0 eebf 00a0 90be 00a0 7fbe
00000310: 00a0 c2be 00c0 d3bd 00a0 b63f 00a0 ae3f
00000320: 00a0 353f 0060 793f 0060 96bc 00a0 173f
00000330: 00e0 f63e 0040 873e 0060 643e 00c0 453f
00000340: 0060 983f 0040 7bbe 0060 413e 0060 33bf
00000350: 0080 a1bf 0060 a43e 0000 093d 0060 1bbf
00000360: 00a0 08bf 0060 473e 0060 e9be 00a0 4b3f
00000370: 00a0 953f 0060 963e 00c0 423f 0020 ee3c
00000380: 00a0 bbbe 0000 a1be 00a0 4a3e 00a0 b63f
00000390: 0020 9dbe 00a0 023f 0060 c53f 00c0 033f
000003a0: 00c0 a8bc 0060 81bd 0040 08be 0020 7d3f
000003b0: 0020 c83f 0000 06bf 00a0 503f 0080 a13f
000003c0: 0080 15be 0060 c8be 0040 063f 0000 a0bf
000003d0: 0000 cbbf 00c0 6d3d 0020 9bbf 00c0 a4be
000003e0: 0000 473e 00a0 dabe 00a0 8a3d 00c0 d73e
000003f0: 00c0 bf3f 0020 cb3e 0020 52bf 0080 b33f

StatefulPartitionedCall/functional_1/depthwise_conv2d_5/depthwise/ReadVariableOp:0 f4 [42, 1, 3, 3]
-1.3720703 -1.0683594 -0.24194336 -0.6845703 -0.6542969 -0.074645996 0.072387695 0.1505127
0.047668457 0.8652344 1.0878906 1.1230469 1.0273438 1.8710938 1.3115234 0.78466797
1.3095703 0.7421875 1.3544922 1.5576172 0.6567383 0.9140625 1.2578125 0.99609375
-0.016326904 0.37524414 0.49853516 0.41577148 0.2006836 -0.04788208 0.8833008 1.0146484
0.30419922 0.66845703 0.6333008 0.24365234 -1.5175781 -1.8837891 -0.8808594 -1.6953125
-1.7675781 -0.6640625 -0.60253906 -0.45214844 -0.21862793 0.09051514 0.46948242 0.56884766
0.5546875 1.0146484 0.92529297 0.7626953 1.3339844 0.89697266 -0.3557129 -0.68652344
-0.011207581 -0.31591797 0.6689453 1.0927734 0.6801758 1.4814453 0.9584961 0.3322754
1.5576172 1.6972656 1.1923828 2.7753906 2.5449219 1.0136719 1.9023438 1.4052734
-0.029891968 0.36987305 0.49658203 0.4189453 1.2070312 0.9194336 0.75683594 1.1074219
0.72265625 1.2978516 1.3134766 0.7080078 1.6396484 2.1640625 0.6455078 0.45092773
1.3007812 0.4663086 -0.53222656 -0.5566406 -0.5151367 -1.1269531 -1.4345703 -0.59033203
-1.21875 -0.98535156 -0.18469238 0.28735352 1.0810547 0.5336914 0.8276367 1.3945312
0.8808594 0.8354492 0.95947266 0.34521484 -0.06689453 0.62646484 0.8671875 1.0576172
2.0136719 1.7001953 1.1425781 1.6015625 0.88720703 -1.1982422 -1.1933594 -0.17028809
-1.3095703 -1.2519531 -0.3125 -0.53808594 -0.5649414 -0.08282471 0.93310547 1.7578125
1.0439453 1.1367188 1.9394531 1.3574219 0.66015625 1.2646484 0.9692383 1.0341797
0.97753906 0.3503418 1.2714844 1.7539062 0.38720703 0.6352539 1.4931641 0.64208984
0.6201172 1.8984375 1.0185547 1.2578125 1.7451172 1.1230469 0.58984375 0.87109375
0.5703125 -1.8232422 -1.7822266 -0.62841797 -1.7705078 -2.0898438 -0.3334961 -0.49145508
-1.0488281 0.8256836 0.72753906 0.9375 0.87402344 0.40625 -0.43115234 -0.9355469
-0.29370117 -1.1220703 -1.4628906 -0.1451416 -0.57128906 -0.7939453 -0.8852539 -1.6494141
-1.1269531 -1.0166016 -1.2568359 -0.57666016 1.2919922 2.0371094 1.0830078 0.41088867
0.9160156 1.1992188 0.10076904 0.33422852 0.4729004 0.90527344 1.2636719 0.7026367
1.1650391 1.7060547 0.9267578 0.5136719 0.8979492 0.62646484 0.45776367 0.71484375
0.8183594 0.25048828 1.15625 1.2988281 0.9560547 1.0615234 0.515625 0.10455322
1.1699219 1.2324219 0.2705078 0.74072266 0.68847656 0.015007019 0.062347412 0.12426758
0.8847656 1.3496094 0.69628906 1.5859375 2.4648438 1.4404297 1.0927734 1.6230469
1.0761719 1.0 1.09375 0.43286133 1.8925781 2.3652344 1.5810547 1.0859375
1.8222656 1.6220703 1.1152344 0.6694336 0.056274414 0.6323242 1.3320312 0.96875
0.1697998 0.8623047 0.6879883 0.10272217 -0.10284424 -0.13745117 0.44458008 1.2451172
0.9951172 0.86376953 1.6699219 1.34375 -1.9707031 -0.3461914 0.8520508 -1.0390625
00000000: 00a0 afbf 00c0 88bf 00c0 77be 0040 2fbf
00000010: 0080 27bf 00e0 98bd 0040 943d 0020 1a3e
00000020: 0040 433d 0080 5d3f 0040 8b3f 00c0 8f3f
00000030: 0080 833f 0080 ef3f 00e0 a73f 00e0 483f
00000040: 00a0 a73f 0000 3e3f 0060 ad3f 0060 c73f
00000050: 0020 283f 0000 6a3f 0000 a13f 0000 7f3f
00000060: 00c0 85bc 0020 c03e 0040 ff3e 00e0 d43e
00000070: 0080 4d3e 0020 44bd 0020 623f 00e0 813f
00000080: 00c0 9b3e 0020 2b3f 0020 223f 0080 793e
00000090: 0040 c2bf 0020 f1bf 0080 61bf 0000 d9bf
000000a0: 0040 e2bf 0000 2abf 0040 1abf 0080 e7be
000000b0: 00e0 5fbe 0060 b93d 0060 f03e 00a0 113f
000000c0: 0000 0e3f 00e0 813f 00e0 6c3f 0040 433f
000000d0: 00c0 aa3f 00a0 653f 0020 b6be 00c0 2fbf
000000e0: 00a0 37bc 00c0 a1be 0040 2b3f 00e0 8b3f
000000f0: 0020 2e3f 00a0 bd3f 0060 753f 0020 aa3e
00000100: 0060 c73f 0040 d93f 00a0 983f 00a0 3140
00000110: 00e0 2240 00c0 813f 0080 f33f 00e0 b33f
00000120: 00e0 f4bc 0060 bd3e 0040 fe3e 0080 d63e
00000130: 0080 9a3f 0060 6b3f 00c0 413f 00c0 8d3f
00000140: 0000 393f 0020 a63f 0020 a83f 0040 353f
00000150: 00e0 d13f 0080 0a40 0040 253f 00e0 e63e
00000160: 0080 a63f 00c0 ee3e 0040 08bf 0080 0ebf
00000170: 00e0 03bf 0040 90bf 00a0 b7bf 0020 17bf
00000180: 0000 9cbf 0040 7cbf 0020 3dbe 0020 933e
00000190: 0060 8a3f 00a0 083f 00e0 533f 0080 b23f
000001a0: 0080 613f 00e0 553f 00a0 753f 00c0 b03e
000001b0: 0000 89bd 0060 203f 0000 5e3f 0060 873f
000001c0: 00e0 0040 00a0 d93f 0040 923f 0000 cd3f
000001d0: 0020 633f 0060 99bf 00c0 98bf 0060 2ebe
000001e0: 00a0 a7bf 0040 a0bf 0000 a0be 00c0 09bf
000001f0: 00a0 10bf 00a0 a9bd 00e0 6e3f 0000 e13f
00000200: 00a0 853f 0080 913f 0040 f83f 00c0 ad3f
00000210: 0000 293f 00e0 a13f 0020 783f 0060 843f
00000220: 0040 7a3f 0060 b33e 00c0 a23f 0080 e03f
00000230: 0040 c63e 00a0 223f 0020 bf3f 0060 243f
00000240: 00c0 1e3f 0000 f33f 0060 823f 0000 a13f
00000250: 0060 df3f 00c0 8f3f 0000 173f 0000 5f3f
00000260: 0000 123f 0060 e9bf 0020 e4bf 00e0 20bf
00000270: 00a0 e2bf 00c0 05c0 00c0 aabe 00a0 fbbe
00000280: 0040 86bf 0060 533f 0040 3a3f 0000 703f
00000290: 00c0 5f3f 0000 d03e 00c0 dcbe 0080 6fbf
000002a0: 0060 96be 00a0 8fbf 0040 bbbf 00a0 14be
000002b0: 0040 12bf 0040 4bbf 00a0 62bf 0020 d3bf
000002c0: 0040 90bf 0020 82bf 00e0 a0bf 00a0 13bf
000002d0: 0060 a53f 0060 0240 00a0 8a3f 0060 d23e
000002e0: 0080 6a3f 0080 993f 0060 ce3d 0020 ab3e
000002f0: 0020 f23e 00c0 673f 00c0 a13f 00e0 333f
00000300: 0020 953f 0060 da3f 0040 6d3f 0080 033f
00000310: 00e0 653f 0060 203f 0060 ea3e 0000 373f
00000320: 0080 513f 0040 803e 0000 943f 0040 a63f
00000330: 00c0 743f 00e0 873f 0000 043f 0020 d63d
00000340: 00c0 953f 00c0 9d3f 0080 8a3e 00a0 3d3f
00000350: 0040 303f 00e0 753c 0060 7f3d 0080 fe3d
00000360: 0080 623f 00c0 ac3f 0040 323f 0000 cb3f
00000370: 00c0 1d40 0060 b83f 00e0 8b3f 00c0 cf3f
00000380: 00c0 893f 0000 803f 0000 8c3f 00a0 dd3e
00000390: 0040 f23f 0060 1740 0060 ca3f 0000 8b3f
000003a0: 0040 e93f 00a0 cf3f 00c0 8e3f 0060 2b3f
000003b0: 0080 663d 00e0 213f 0080 aa3f 0000 783f
000003c0: 00e0 2d3e 00c0 5c3f 0020 303f 0060 d23d
000003d0: 00a0 d2bd 00c0 0cbe 00a0 e33e 0060 9f3f
000003e0: 00c0 7e3f 0020 5d3f 00c0 d53f 0000 ac3f
000003f0: 0040 fcbf 0040 b1be 0020 5a3f 0000 85bf

StatefulPartitionedCall/functional_1/depthwise_conv2d_4/depthwise/ReadVariableOp:0 f4 [36, 1, 3, 3]
-0.99121094 -1.6259766 -1.0683594 -1.1396484 0.42236328 0.016326904 0.021499634 0.79248047
-0.12042236 0.36523438 0.039520264 0.2541504 -0.3256836 -1.8701172 0.058135986 -0.7109375
-0.7001953 0.05368042 1.1015625 1.0996094 -0.21850586 0.6816406 1.0195312 -0.7089844
0.00060367584 0.31445312 -0.6801758 0.95410156 0.121520996 -0.87939453 0.9008789 -0.1661377
-1.5429688 0.41430664 0.4868164 -0.6801758 0.9741211 -0.27856445 -0.9291992 0.93603516
-0.671875 -1.2773438 -0.26367188 -0.58251953 -1.1054688 -0.032073975 -0.97753906 -0.43725586
0.11621094 -1.8447266 -1.0283203 0.20593262 0.7285156 0.09375 0.3400879 -1.2246094
-0.4975586 -1.0087891 -1.5068359 0.4326172 -0.42285156 0.45507812 0.63183594 1.1162109
1.7421875 1.0371094 0.4880371 1.640625 0.22875977 -0.3569336 -0.72216797 -0.54248047
-0.5336914 0.3100586 0.07098389 -1.2714844 0.45117188 0.89990234 -1.1162109 0.58691406
0.7734375 0.5644531 1.4472656 0.2512207 -0.072509766 1.4453125 0.58691406 -0.68066406
-1.1171875 -0.5932617 0.4074707 1.2685547 0.25317383 0.3984375 1.6259766 1.6982422
0.15429688 -0.14770508 0.56689453 -0.95166016 -0.3388672 0.72998047 -1.5009766 -0.4633789
1.2382812 0.4892578 0.9482422 0.74316406 0.115722656 0.018554688 -0.33911133 -0.51953125
-1.8837891 -0.7207031 -0.23876953 -0.56347656 -0.2915039 -1.5849609 -1.8232422 -0.15222168
-0.0869751 0.32861328 0.5751953 1.0927734 0.65625 0.3400879 0.43579102 0.7939453
0.5332031 -0.5317383 -0.9716797 -0.87597656 -0.65478516 -0.96484375 -0.2980957 -0.7548828
-1.0849609 -1.1220703 0.5625 -0.011558533 -0.5444336 1.1210938 1.1748047 0.6113281
0.49267578 0.9033203 0.07659912 1.2949219 1.5869141 -0.0052833557 1.1748047 1.8935547
0.24572754 0.103393555 -0.0021972656 -0.29467773 0.014328003 -2.6171875 -0.050964355 -0.09320068
-0.22302246 -0.13134766 -1.2294922 -1.2587891 -0.50146484 0.26464844 1.4248047 0.5864258
0.6464844 0.8652344 0.37963867 -1.3789062 -0.036071777 1.1757812 -1.0390625 -0.050354004
1.625 0.14172363 0.27905273 0.7949219 1.515625 0.52490234 -0.33618164 1.1591797
2.015625 0.09313965 -0.15185547 0.10015869 -0.2788086 -0.61328125 -0.2479248 0.017730713
-1.1337891 -0.54248047 -0.062805176 -0.47753906 -0.4074707 -0.11175537 1.1699219 0.08935547
-0.92871094 1.6728516 0.3569336 -0.96533203 1.6777344 1.921875 -0.3774414 0.5048828
0.6796875 1.1298828 -0.11773682 -2.09375 -0.60302734 -0.14343262 -0.33007812 -0.042877197
-1.0537109 -0.49731445 0.43603516 -1.6035156 0.88720703 0.7421875 -0.50634766 1.3818359
0.5859375 0.15429688 1.1445312 0.024398804 -0.39648438 2.6796875 0.4794922 -0.5908203
0.70458984 0.65625 -0.14880371 -1.4707031 -0.92089844 0.23498535 -1.9111328 -0.63964844
-0.0947876 0.31396484 0.027435303 0.7104492 1.5322266 1.4355469 1.0458984 1.75
1.0205078 -0.4729004 0.5263672 0.5908203 2.1679688 1.3769531 1.3505859 1.4873047
00000000: 00c0 7dbf 0020 d0bf 00c0 88bf 00e0 91bf
00000010: 0040 d83e 00c0 853c 0020 b03c 00e0 4a3f
00000020: 00a0 f6bd 0000 bb3e 00e0 213d 0020 823e
00000030: 00c0 a6be 0060 efbf 0020 6e3d 0000 36bf
00000040: 0040 33bf 00e0 5b3d 0000 8d3f 00c0 8c3f
00000050: 00c0 5fbe 0080 2e3f 0080 823f 0080 35bf
00000060: 0040 1e3a 0000 a13e 0020 2ebf 0040 743f
00000070: 00e0 f83d 0020 61bf 00a0 663f 0020 2abe
00000080: 0080 c5bf 0020 d43e 0040 f93e 0020 2ebf
00000090: 0060 793f 00a0 8ebe 00e0 6dbf 00a0 6f3f
000000a0: 0000 2cbf 0080 a3bf 0000 87be 0020 15bf
000000b0: 0080 8dbf 0060 03bd 0040 7abf 00e0 dfbe
000000c0: 0000 ee3d 0020 ecbf 00a0 83bf 00e0 523e
000000d0: 0080 3a3f 0000 c03d 0020 ae3e 00c0 9cbf
000000e0: 00c0 febe 0020 81bf 00e0 c0bf 0080 dd3e
000000f0: 0080 d8be 0000 e93e 00c0 213f 00e0 8e3f
00000100: 0000 df3f 00c0 843f 00e0 f93e 0000 d23f
00000110: 0040 6a3e 00c0 b6be 00e0 38bf 00e0 0abf
00000120: 00a0 08bf 00c0 9e3e 0060 913d 00c0 a2bf
00000130: 0000 e73e 0060 663f 00e0 8ebf 0040 163f
00000140: 0000 463f 0080 103f 0040 b93f 00a0 803e
00000150: 0080 94bd 0000 b93f 0040 163f 0040 2ebf
00000160: 0000 8fbf 00e0 17bf 00a0 d03e 0060 a23f
00000170: 00a0 813e 0000 cc3e 0020 d03f 0060 d93f
00000180: 0000 1e3e 0040 17be 0020 113f 00a0 73bf
00000190: 0080 adbe 00e0 3a3f 0020 c0bf 0040 edbe
000001a0: 0080 9e3f 0080 fa3e 00c0 723f 0040 3e3f
000001b0: 0000 ed3d 0000 983c 00a0 adbe 0000 05bf
000001c0: 0020 f1bf 0080 38bf 0080 74be 0040 10bf
000001d0: 0040 95be 00e0 cabf 0060 e9bf 00e0 1bbe
000001e0: 0020 b2bd 0040 a83e 0040 133f 00e0 8b3f
000001f0: 0000 283f 0020 ae3e 0020 df3e 0040 4b3f
00000200: 0080 083f 0020 08bf 00c0 78bf 0040 60bf
00000210: 00a0 27bf 0000 77bf 00a0 98be 0040 41bf
00000220: 00e0 8abf 00a0 8fbf 0000 103f 0060 3dbc
00000230: 0060 0bbf 0080 8f3f 0060 963f 0080 1c3f
00000240: 0040 fc3e 0040 673f 00e0 9c3d 00c0 a53f
00000250: 0020 cb3f 0020 adbb 0060 963f 0060 f23f
00000260: 00a0 7b3e 00c0 d33d 0000 10bb 00e0 96be
00000270: 00c0 6a3c 0080 27c0 00c0 50bd 00e0 bebd
00000280: 0060 64be 0080 06be 0060 9dbf 0020 a1bf
00000290: 0060 00bf 0080 873e 0060 b63f 0020 163f
000002a0: 0080 253f 0080 5d3f 0060 c23e 0080 b0bf
000002b0: 00c0 13bd 0080 963f 0000 85bf 0040 4ebd
000002c0: 0000 d03f 0020 113e 00e0 8e3e 0080 4b3f
000002d0: 0000 c23f 0060 063f 0020 acbe 0060 943f
000002e0: 0000 0140 00c0 be3d 0080 1bbe 0020 cd3d
000002f0: 00c0 8ebe 0000 1dbf 00e0 7dbe 0040 913c
00000300: 0020 91bf 00e0 0abf 00a0 80bd 0080 f4be
00000310: 00a0 d0be 00e0 e4bd 00c0 953f 0000 b73d
00000320: 00c0 6dbf 0020 d63f 00c0 b63e 0020 77bf
00000330: 00c0 d63f 0000 f63f 0040 c1be 0040 013f
00000340: 0000 2e3f 00a0 903f 0020 f1bd 0000 06c0
00000350: 0060 1abf 00e0 12be 0000 a9be 00a0 2fbd
00000360: 00e0 86bf 00a0 febe 0040 df3e 0040 cdbf
00000370: 0020 633f 0000 3e3f 00a0 01bf 00e0 b03f
00000380: 0000 163f 0000 1e3e 0080 923f 00e0 c73c
00000390: 0000 cbbe 0080 2b40 0080 f53e 0040 17bf
000003a0: 0060 343f 0000 283f 0060 18be 0040 bcbf
000003b0: 00c0 6bbf 00a0 703e 00a0 f4bf 00c0 23bf
000003c0: 0020 c2bd 00c0 a03e 00c0 e03c 00e0 353f
000003d0: 0020 c43f 00c0 b73f 00e0 853f 0000 e03f
000003e0: 00a0 823f 0020 f2be 00c0 063f 0040 173f
000003f0: 00c0 0a40 0040 b03f 00e0 ac3f 0060 be3f

StatefulPartitionedCall/functional_1/depthwise_conv2d_3/depthwise/ReadVariableOp:0 f4 [32, 1, 3, 3]
-0.52978516 -0.71533203 0.6171875 -0.95947266 1.1337891 1.5332031 -0.08911133 0.80615234
0.6113281 -0.74902344 -0.7348633 -0.50439453 -0.059783936 -1.3632812 -0.80810547 -0.35986328
0.4140625 -0.16088867 -0.46166992 -1.4042969 -0.22717285 0.19421387 -0.0826416 0.31860352
0.93652344 1.3994141 0.70703125 0.94873047 1.1962891 -0.30273438 1.2705078 0.4645996
-0.59033203 -0.123291016 -0.5073242 -0.6201172 -0.73535156 -0.9580078 -0.85839844 0.2890625
1.7402344 -0.3684082 0.57470703 1.4150391 1.1582031 0.38476562 -0.8876953 0.4350586
-0.5932617 -2.2011719 0.17553711 0.44458008 -0.0546875 -0.1373291 0.6376953 0.21813965
-0.6801758 -1.984375 0.12609863 1.2451172 -0.37475586 0.4189453 0.83740234 -0.31201172
-0.23181152 0.28295898 -0.8286133 -0.49389648 0.19189453 -0.7631836 -1.4541016 -0.9165039
0.8491211 1.34375 0.1060791 0.43408203 0.4416504 -0.4465332 -0.56640625 -0.35083008
-0.048065186 -0.09674072 -0.38598633 -0.35791016 -0.72216797 -2.4257812 -0.7504883 -0.05142212
-0.24023438 -0.48486328 0.16271973 0.49389648 0.032318115 0.38110352 2.6542969 -0.047332764
0.06750488 -0.06378174 0.14074707 0.17456055 0.81933594 0.07733154 0.46850586 2.6054688
0.021575928 -0.037506104 -0.027313232 -0.23828125 -0.13745117 0.20471191 -0.040985107 -0.054718018
-1.9042969 -0.70214844 -0.29370117 -0.7080078 -0.12023926 -0.49023438 1.8994141 0.90478516
-0.9995117 -0.17419434 0.93603516 0.017501831 -0.84033203 0.038330078 -1.0175781 -0.7163086
0.69970703 -0.71435547 -0.5205078 -0.4099121 0.3408203 1.1953125 0.3059082 0.56640625
2.796875 0.22302246 1.078125 -0.23913574 -0.22583008 0.52783203 0.18432617 -0.08642578
-0.59277344 0.23486328 1.4433594 -1.46875 -0.7192383 1.1162109 -0.5209961 -0.45239258
0.0769043 -0.9628906 -1.1298828 0.2602539 -0.8676758 -1.2412109 0.057159424 -0.17578125
0.0025119781 0.05795288 -0.4248047 1.0673828 0.8642578 -1.3193359 -0.2298584 1.4648438
-1.0136719 -0.45898438 0.66845703 0.33276367 -1.2666016 -0.65771484 0.7583008 2.0507812
-1.7001953 0.16333008 0.98876953 0.1829834 -0.17358398 0.65283203 0.65283203 -0.5385742
1.609375 1.1728516 -1.0087891 0.33691406 -0.06359863 -0.37329102 -0.9272461 0.21374512
-0.014984131 1.3828125 0.3605957 0.027191162 0.27392578 0.23535156 0.75634766 0.70703125
0.5415039 0.084350586 3.5644531 0.24414062 -0.01171875 -0.3203125 -0.013084412 -0.28930664
-0.4873047 0.030151367 -0.10601807 3.0742188 0.051483154 -0.019760132 -0.13439941 0.06488037
-0.63671875 -1.6630859 -1.4189453 -0.7163086 -0.1776123 -0.7973633 -0.63427734 -1.8847656
-0.2388916 -0.91552734 -1.4960938 -0.62890625 -1.0673828 -2.1835938 -0.81152344 0.015182495
-0.49194336 0.043121338 0.27001953 0.97753906 0.81103516 2.3183594 2.3066406 0.9238281
0.9458008 0.45361328 -0.88671875 -0.037963867 -0.4050293 -0.43823242 -0.390625 -1.8027344
-0.4560547 -0.52783203 -1.1875 -0.3166504 -0.04196167 2.0957031 -0.3359375 0.6225586
00000000: 00a0 07bf 0020 37bf 0000 1e3f 00a0 75bf
00000010: 0020 913f 0040 c43f 0080 b6bd 0060 4e3f
00000020: 0080 1c3f 00c0 3fbf 0020 3cbf 0020 01bf
00000030: 00e0 74bd 0080 aebf 00e0 4ebf 0040 b8be
00000040: 0000 d43e 00c0 24be 0060 ecbe 00c0 b3bf
00000050: 00a0 68be 00e0 463e 0040 a9bd 0020 a33e
00000060: 00c0 6f3f 0020 b33f 0000 353f 00e0 723f
00000070: 0020 993f 0000 9bbe 00a0 a23f 00e0 ed3e
00000080: 0020 17bf 0080 fcbd 00e0 01bf 00c0 1ebf
00000090: 0040 3cbf 0040 75bf 00c0 5bbf 0000 943e
000000a0: 00c0 de3f 00a0 bcbe 0020 133f 0020 b53f
000000b0: 0040 943f 0000 c53e 0040 63bf 00c0 de3e
000000c0: 00e0 17bf 00e0 0cc0 00c0 333e 00a0 e33e
000000d0: 0000 60bd 00a0 0cbe 0040 233f 0060 5f3e
000000e0: 0020 2ebf 0000 febf 0020 013e 0060 9f3f
000000f0: 00e0 bfbe 0080 d63e 0060 563f 00c0 9fbe
00000100: 0060 6dbe 00e0 903e 0020 54bf 00e0 fcbe
00000110: 0080 443e 0060 43bf 0020 babf 00a0 6abf
00000120: 0060 593f 0000 ac3f 0040 d93d 0040 de3e
00000130: 0020 e23e 00a0 e4be 0000 11bf 00a0 b3be
00000140: 00e0 44bd 0020 c6bd 00a0 c5be 0040 b7be
00000150: 00e0 38bf 0040 1bc0 0020 40bf 00a0 52bd
00000160: 0000 76be 0040 f8be 00a0 263e 00e0 fc3e
00000170: 0060 043d 0020 c33e 00e0 2940 00e0 41bd
00000180: 0040 8a3d 00a0 82bd 0020 103e 00c0 323e
00000190: 00c0 513f 0060 9e3d 00e0 ef3e 00c0 2640
000001a0: 00c0 b03c 00a0 19bd 00c0 dfbc 0000 74be
000001b0: 00c0 0cbe 00a0 513e 00e0 27bd 0020 60bd
000001c0: 00c0 f3bf 00c0 33bf 0060 96be 0040 35bf
000001d0: 0040 f6bd 0000 fbbe 0020 f33f 00a0 673f
000001e0: 00e0 7fbf 0060 32be 00a0 6f3f 0060 8f3c
000001f0: 0020 57bf 0000 1d3d 0040 82bf 0060 37bf
00000200: 0020 333f 00e0 36bf 0040 05bf 00e0 d1be
00000210: 0080 ae3e 0000 993f 00a0 9c3e 0000 113f
00000220: 0000 3340 0060 643e 0000 8a3f 00e0 74be
00000230: 0040 67be 0020 073f 00c0 3c3e 0000 b1bd
00000240: 00c0 17bf 0080 703e 00c0 b83f 0000 bcbf
00000250: 0020 38bf 00e0 8e3f 0060 05bf 00a0 e7be
00000260: 0080 9d3d 0080 76bf 00a0 90bf 0040 853e
00000270: 0020 5ebf 00e0 9ebf 0020 6a3d 0000 34be
00000280: 00a0 243b 0060 6d3d 0080 d9be 00a0 883f
00000290: 0040 5d3f 00e0 a8bf 0060 6bbe 0080 bb3f
000002a0: 00c0 81bf 0000 ebbe 0020 2b3f 0060 aa3e
000002b0: 0020 a2bf 0060 28bf 0020 423f 0040 0340
000002c0: 00a0 d9bf 0040 273e 0020 7d3f 0060 3b3e
000002d0: 00c0 31be 0020 273f 0020 273f 00e0 09bf
000002e0: 0000 ce3f 0020 963f 0020 81bf 0080 ac3e
000002f0: 0040 82bd 0020 bfbe 0060 6dbf 00e0 5a3e
00000300: 0080 75bc 0000 b13f 00a0 b83e 00c0 de3c
00000310: 0040 8c3e 0000 713e 00a0 413f 0000 353f
00000320: 00a0 0a3f 00c0 ac3d 0020 6440 0000 7a3e
00000330: 0000 40bc 0000 a4be 0060 56bc 0020 94be
00000340: 0080 f9be 0000 f73c 0020 d9bd 00c0 4440
00000350: 00e0 523d 00e0 a1bc 00a0 09be 00e0 843d
00000360: 0000 23bf 00e0 d4bf 00a0 b5bf 0060 37bf
00000370: 00e0 35be 0020 4cbf 0060 22bf 0040 f1bf
00000380: 00a0 74be 0060 6abf 0080 bfbf 0000 21bf
00000390: 00a0 88bf 00c0 0bc0 00c0 4fbf 00c0 783c
000003a0: 00e0 fbbe 00a0 303d 0040 8a3e 0040 7a3f
000003b0: 00a0 4f3f 0060 1440 00a0 1340 0080 6c3f
000003c0: 0020 723f 0040 e83e 0000 63bf 0080 1bbd
000003d0: 0060 cfbe 0060 e0be 0000 c8be 00c0 e6bf
000003e0: 0080 e9be 0020 07bf 0000 98bf 0020 a2be
000003f0: 00e0 2bbd 0020 0640 0000 acbe 0060 1f3f

StatefulPartitionedCall/functional_1/depthwise_conv2d_2/depthwise/ReadVariableOp:0 f4 [28, 1, 3, 3]
1.1347656 2.0019531 1.3212891 1.5146484 2.5996094 1.640625 0.76220703 1.2626953
0.6586914 -0.75146484 -1.078125 -0.66308594 -1.0498047 -1.9375 -1.1318359 -0.69921875
-1.0810547 -0.44604492 -0.61035156 -1.3251953 -1.0458984 0.70751953 0.40161133 -0.27319336
1.4169922 1.3974609 0.44555664 0.8989258 1.2431641 0.6743164 0.52001953 1.6699219
1.1669922 -0.2006836 0.15405273 0.6816406 -0.50878906 -0.5292969 -0.37426758 -1.1064453
-1.0546875 -0.37963867 -0.8051758 -1.0673828 -0.2697754 -1.0683594 -1.0019531 -0.32226562
-1.2568359 -1.4345703 -0.33618164 -0.5419922 -0.7607422 -0.12475586 0.83691406 1.4599609
0.33032227 0.5292969 2.0214844 1.1132812 -0.5083008 1.0322266 1.4482422 -0.78271484
-0.026245117 0.5209961 0.03591919 0.7128906 0.85546875 0.4555664 0.8457031 0.25561523
-0.734375 -1.5166016 -0.9199219 -1.1074219 -2.1660156 -1.6152344 -0.52197266 -1.2871094
-0.890625 1.3066406 1.4824219 0.578125 0.8232422 0.9213867 0.6323242 -0.30737305
-0.21325684 0.1126709 -0.56689453 -1.4882812 -1.1103516 -1.4765625 -2.4121094 -1.4013672
-1.2871094 -1.4804688 -0.43920898 -0.72265625 -0.80859375 -0.2788086 -0.6616211 -1.2460938
-0.4645996 -0.20727539 -0.50927734 -0.27539062 -0.24035645 -0.34350586 -0.07366943 -0.83251953
-1.359375 -0.64697266 -0.64453125 -1.0078125 -0.4567871 -2.0410156 -2.1542969 -0.9951172
-2.0449219 -1.3056641 0.027679443 0.5908203 1.2734375 1.0849609 -0.36987305 -1.8964844
-1.8115234 0.8730469 0.5527344 -0.38183594 0.6015625 1.3486328 0.68847656 1.3115234
2.0117188 0.76953125 1.7099609 2.4277344 0.96191406 0.8251953 0.5493164 0.14562988
-1.4755859 -1.8886719 -0.70410156 -1.1611328 -1.8164062 -1.0507812 0.1928711 -0.20727539
-0.4873047 -0.52490234 -1.1162109 -0.66845703 -0.98583984 -1.4863281 -0.70458984 -0.3322754
-0.5136719 -0.37695312 -1.0273438 -0.9355469 -0.73828125 -0.8334961 -0.6352539 -0.14355469
-0.14257812 0.47851562 0.60058594 1.3974609 1.1464844 0.1270752 1.6757812 1.7011719
-0.38623047 0.023361206 0.15185547 -0.3425293 1.3447266 0.9301758 0.085632324 2.1699219
1.5605469 -0.14746094 0.875 0.5361328 -0.2088623 -0.4506836 -0.9082031 -0.7685547
-1.0185547 -2.0722656 -1.3515625 -1.1230469 -1.4980469 -0.6958008 1.2246094 1.7333984
0.73583984 1.2705078 1.9443359 0.9838867 0.4699707 0.8642578 0.38671875 -0.9560547
-1.1132812 -0.12573242 -0.9946289 -1.3632812 -0.3161621 -0.038757324 -0.07476807 -0.13378906
0.5625 1.7324219 1.8994141 0.51220703 1.8291016 1.8261719 -0.07019043 0.45703125
0.0061950684 -1.3759766 -1.9619141 -1.4277344 -0.9399414 -0.8251953 -1.1816406 -0.8569336
-1.2978516 -1.2519531 2.3242188 1.9990234 -0.5864258 3.2734375 2.8105469 0.3701172
2.8867188 2.0058594 0.49487305 -0.92089844 -0.47070312 0.22497559 -1.3642578 -0.7158203
0.46972656 -1.0087891 -0.019058228 0.56933594
00000000: 0040 913f 0020 0040 0020 a93f 00e0 c13f
00000010: 0060 2640 0000 d23f 0020 433f 00a0 a13f
00000020: 00a0 283f 0060 40bf 0000 8abf 00c0 29bf
00000030: 0060 86bf 0000 f8bf 00e0 90bf 0000 33bf
00000040: 0060 8abf 0060 e4be 0040 1cbf 00a0 a9bf
00000050: 00e0 85bf 0020 353f 00a0 cd3e 00e0 8bbe
00000060: 0060 b53f 00e0 b23f 0020 e43e 0020 663f
00000070: 0020 9f3f 00a0 2c3f 0020 053f 00c0 d53f
00000080: 0060 953f 0080 4dbe 00c0 1d3e 0080 2e3f
00000090: 0040 02bf 0080 07bf 00a0 bfbe 00a0 8dbf
000000a0: 0000 87bf 0060 c2be 0020 4ebf 00a0 88bf
000000b0: 0020 8abe 00c0 88bf 0040 80bf 0000 a5be
000000c0: 00e0 a0bf 00a0 b7bf 0020 acbe 00c0 0abf
000000d0: 00c0 42bf 0080 ffbd 0040 563f 00e0 ba3f
000000e0: 0020 a93e 0080 073f 0060 0140 0080 8e3f
000000f0: 0020 02bf 0020 843f 0060 b93f 0060 48bf
00000100: 0000 d7bc 0060 053f 0020 133d 0080 363f
00000110: 0000 5b3f 0040 e93e 0080 583f 00e0 823e
00000120: 0000 3cbf 0020 c2bf 0080 6bbf 00c0 8dbf
00000130: 00a0 0ac0 00c0 cebf 00a0 05bf 00c0 a4bf
00000140: 0000 64bf 0040 a73f 00c0 bd3f 0000 143f
00000150: 00c0 523f 00e0 6b3f 00e0 213f 0060 9dbe
00000160: 0060 5abe 00c0 e63d 0020 11bf 0080 bebf
00000170: 0020 8ebf 0000 bdbf 0060 1ac0 0060 b3bf
00000180: 00c0 a4bf 0080 bdbf 00e0 e0be 0000 39bf
00000190: 0000 4fbf 00c0 8ebe 0060 29bf 0080 9fbf
000001a0: 00e0 edbe 0040 54be 0060 02bf 0000 8dbe
000001b0: 0020 76be 00e0 afbe 00e0 96bd 0020 55bf
000001c0: 0000 aebf 00a0 25bf 0000 25bf 0000 81bf
000001d0: 00e0 e9be 00a0 02c0 00e0 09c0 00c0 7ebf
000001e0: 00e0 02c0 0020 a7bf 00c0 e23c 0040 173f
000001f0: 0000 a33f 00e0 8a3f 0060 bdbe 00c0 f2bf
00000200: 00e0 e7bf 0080 5f3f 0080 0d3f 0080 c3be
00000210: 0000 1a3f 00a0 ac3f 0040 303f 00e0 a73f
00000220: 00c0 0040 0000 453f 00e0 da3f 0060 1b40
00000230: 0040 763f 0040 533f 00a0 0c3f 0020 153e
00000240: 00e0 bcbf 00c0 f1bf 0040 34bf 00a0 94bf
00000250: 0080 e8bf 0080 86bf 0080 453e 0040 54be
00000260: 0080 f9be 0060 06bf 00e0 8ebf 0020 2bbf
00000270: 0060 7cbf 0040 bebf 0060 34bf 0020 aabe
00000280: 0080 03bf 0000 c1be 0080 83bf 0080 6fbf
00000290: 0000 3dbf 0060 55bf 00a0 22bf 0000 13be
000002a0: 0000 12be 0000 f53e 00c0 193f 00e0 b23f
000002b0: 00c0 923f 0020 023e 0080 d63f 00c0 d93f
000002c0: 00c0 c5be 0060 bf3c 0080 1b3e 0060 afbe
000002d0: 0020 ac3f 0020 6e3f 0060 af3d 00e0 0a40
000002e0: 00c0 c73f 0000 17be 0000 603f 0040 093f
000002f0: 00e0 55be 00c0 e6be 0080 68bf 00c0 44bf
00000300: 0060 82bf 00a0 04c0 0000 adbf 00c0 8fbf
00000310: 00c0 bfbf 0020 32bf 00c0 9c3f 00e0 dd3f
00000320: 0060 3c3f 00a0 a23f 00e0 f83f 00e0 7b3f
00000330: 00a0 f03e 0040 5d3f 0000 c63e 00c0 74bf
00000340: 0080 8ebf 00c0 00be 00a0 7ebf 0080 aebf
00000350: 00e0 a1be 00c0 1ebd 0020 99bd 0000 09be
00000360: 0000 103f 00c0 dd3f 0020 f33f 0020 033f
00000370: 0020 ea3f 00c0 e93f 00c0 8fbd 0000 ea3e
00000380: 0000 cb3b 0020 b0bf 0020 fbbf 00c0 b6bf
00000390: 00a0 70bf 0040 53bf 0040 97bf 0060 5bbf
000003a0: 0020 a6bf 0040 a0bf 00c0 1440 00e0 ff3f
000003b0: 0020 16bf 0080 5140 00e0 3340 0080 bd3e
000003c0: 00c0 3840 0060 0040 0060 fd3e 00c0 6bbf
000003d0: 0000 f1be 0060 663e 00a0 aebf 0040 37bf
000003e0: 0080 f03e 0020 81bf 0020 9cbc 00c0 113f
