Assets/BlazeFace/ONNX/face_detection_back_256x256_barracuda.onnx (onnx, 603432 bytes, 106 tensors)

StatefulPartitionedCall/functional_1/depthwise_conv2d_9/depthwise/ReadVariableOp:0 f4 [24, 1, 3, 3]
0	0xbf014000	-0.5048828
1	0xbfa7e000	-1.3115234
2	0xc0204000	-2.5039062
3	0xbdbbc000	-0.091674805
4	0xc0a56000	-5.1679688
5	0xc00aa000	-2.1660156
6	0x3dc7e000	0.097595215
7	0xc0614000	-3.5195312
8	0xbddd0000	-0.107910156
9	0xbf458000	-0.7714844
10	0xc023e000	-2.5605469
11	0xbfe6c000	-1.8027344
12	0xbda98000	-0.08276367
13	0x4036a000	2.8535156
14	0xbf19e000	-0.6010742
15	0xbe61c000	-0.22045898
16	0xbdc40000	-0.095703125
17	0x3e1ac000	0.15112305
18	0x3f7ce000	0.98779297
19	0x3f874000	1.0566406
20	0xc002c000	-2.0429688
21	0x3f8fc000	1.1230469
22	0x3fbf0000	1.4921875
23	0xbf8bc000	-1.0917969
24	0x3fa0e000	1.2568359
25	0x4005e000	2.0917969
26	0x3e00c000	0.12573242
27	0x3d1fc000	0.039001465
28	0x3ffda000	1.9814453
29	0x3fa62000	1.2978516
30	0x3ef26000	0.47338867
31	0x40a40000	5.125
32	0x3f88e000	1.0693359
33	0x3f736000	0.9506836
34	0x3f592000	0.84814453
35	0x3ed16000	0.40893555
36	0xbfc3e000	-1.5302734
37	0xbe9f8000	-0.31152344
38	0x3f44e000	0.76904297
39	0xc07fe000	-3.9980469
40	0xc0078000	-2.1171875
41	0x40020000	2.03125
42	0xbef46000	-0.47729492
43	0xbf592000	-0.84814453
44	0x3f804000	1.0019531
45	0xbf556000	-0.8334961
46	0xc00ee000	-2.2324219
47	0xbfc9e000	-1.5771484
48	0xbfafa000	-1.3720703
49	0x404ce000	3.2011719
50	0xbe284000	-0.16430664
51	0xbead8000	-0.3388672
52	0x3f45a000	0.77197266
53	0xbe8aa000	-0.27075195
54	0x3ead2000	0.33813477
55	0x40384000	2.8789062
56	0xbd7e8000	-0.06213379
57	0x4056e000	3.3574219
58	0x3fafe000	1.3740234
59	0x3f276000	0.6538086
60	0xbcdd6000	-0.027023315
61	0xc015a000	-2.3378906
62	0x3eb2a000	0.34887695
63	0xbf426000	-0.75927734
64	0xbea24000	-0.31689453
65	0x3ead2000	0.33813477
66	0xbf6e2000	-0.9301758
67	0xc0dde000	-6.9335938
68	0xbf49c000	-0.78808594
69	0x3dd00000	0.1015625
70	0xbe138000	-0.14404297
71	0x3e5e8000	0.21728516
72	0xbf67e000	-0.9057617
73	0x3e60a000	0.21936035
74	0x3ee1a000	0.44067383
75	0x3e8f8000	0.28027344
76	0xbf104000	-0.56347656
77	0xbeec6000	-0.46166992
78	0xbefe8000	-0.4970703
79	0xc008e000	-2.1386719
80	0xbf80c000	-1.0058594
81	0xc0010000	-2.015625
82	0xc06ca000	-3.6972656
83	0xbfc36000	-1.5263672
84	0xbdc24000	-0.09484863
85	0x3dfd2000	0.12359619
86	0x3f806000	1.0029297
87	0x3f8a6000	1.0810547
88	0x3f77e000	0.9682617
89	0x3f3e0000	0.7421875
90	0x40106000	2.2558594
91	0x40166000	2.3496094
92	0xbe97a000	-0.29614258
93	0x4035c000	2.8398438
94	0x403ca000	2.9472656
95	0xbf98e000	-1.1943359
96	0xbf254000	-0.6455078
97	0xc005a000	-2.0878906
98	0xbfe56000	-1.7919922
99	0xbf502000	-0.8129883
100	0xbf854000	-1.0410156
101	0xbe99c000	-0.30029297
102	0xbf312000	-0.69189453
103	0x3f66a000	0.9008789
104	0x3f626000	0.88427734
105	0x3f2cc000	0.6748047
106	0x40d76000	6.7304688
107	0x4005a000	2.0878906
108	0x3f9ae000	1.2099609
109	0x3ff24000	1.8925781
110	0xbf768000	-0.9628906
111	0x3e1a4000	0.15063477
112	0x40a22000	5.0664062
113	0xbf29a000	-0.66259766
114	0xbe9da000	-0.30786133
115	0xbe7e6000	-0.24841309
116	0x3e836000	0.2565918
117	0x404f2000	3.2363281
118	0x3f2fe000	0.6870117
119	0xbe928000	-0.2861328
120	0x403f0000	2.984375
121	0x407c2000	3.9394531
122	0xbfa8c000	-1.3183594
123	0xbf1b8000	-0.6074219
124	0xbe90e000	-0.28295898
125	0x3e9bc000	0.30419922
126	0x3f462000	0.7739258
127	0xc088c000	-4.2734375
128	0xbe43c000	-0.19116211
129	0xbef64000	-0.48095703
130	0xc0976000	-4.7304688
131	0xbf9ce000	-1.2255859
132	0x3e7d0000	0.24707031
133	0xbf750000	-0.95703125
134	0xbda78000	-0.08178711
135	0xbf9f0000	-1.2421875
136	0xbf924000	-1.1425781
137	0xc00dc000	-2.2148438
138	0xbf844000	-1.0332031
139	0xc0764000	-3.8476562
140	0xc0576000	-3.3652344
141	0x3e4ae000	0.19812012
142	0xc0644000	-3.5664062
143	0xc087a000	-4.2382812
144	0xbf59c000	-0.85058594
145	0xc0008000	-2.0078125
146	0x3fe14000	1.7597656
147	0xc0442000	-3.0644531
148	0xbfc80000	-1.5625
149	0x3da9e000	0.08294678
150	0xbf450000	-0.76953125
151	0xbf538000	-0.8261719
152	0xbe88c000	-0.26708984
153	0x3ff16000	1.8857422
154	0x401dc000	2.4648438
155	0x3d192000	0.037384033
156	0x3fdc8000	1.7226562
157	0xbffe2000	-1.9853516
158	0xc06d4000	-3.7070312
159	0xbec72000	-0.38891602
160	0xbfeca000	-1.8486328
161	0xbda78000	-0.08178711
162	0xbf304000	-0.68847656
163	0xc01ca000	-2.4472656
164	0xbf94e000	-1.1630859
165	0xbf720000	-0.9453125
166	0xbf928000	-1.1445312
167	0x401b2000	2.4238281
168	0xc01cc000	-2.4492188
169	0x3f76c000	0.9638672
170	0x3ff1a000	1.8876953
171	0xbf758000	-0.9589844
172	0xbf6ea000	-0.9321289
173	0xc022a000	-2.5410156
174	0x3f644000	0.89160156
175	0xc0a88000	-5.265625
176	0xc00c6000	-2.1933594
177	0xbf108000	-0.5644531
178	0xbf8d8000	-1.1054688
179	0xbec94000	-0.3930664
180	0xc02ea000	-2.7285156
181	0xbfe94000	-1.8222656
182	0xc0534000	-3.3007812
183	0xbfb40000	-1.40625
184	0xbed84000	-0.42236328
185	0xc026e000	-2.6074219
186	0xbef3c000	-0.47607422
187	0x3e834000	0.25634766
188	0xbfc18000	-1.5117188
189	0x40064000	2.0976562
190	0x3faa6000	1.3310547
191	0xbfd52000	-1.6650391
192	0x3f898000	1.0742188
193	0xbd800000	-0.0625
194	0xbf638000	-0.8886719
195	0x3f8b6000	1.0888672
196	0x3f1f4000	0.6220703
197	0x3fc08000	1.5039062
198	0x3def6000	0.116882324
199	0x3f728000	0.9472656
200	0x3eabe000	0.33569336
201	0xbd746000	-0.059661865
202	0xc0faa000	-7.8320312
203	0xbf6bc000	-0.92089844
204	0x3e806000	0.25073242
205	0xc01f0000	-2.484375
206	0xbf1aa000	-0.6040039
207	0xc022e000	-2.5449219
208	0xc03b0000	-2.921875
209	0xbf648000	-0.8925781
210	0x3eaac000	0.3334961
211	0xbfdce000	-1.7255859
212	0xbf948000	-1.1601562
213	0x3f10e000	0.56591797
214	0x3e468000	0.19384766
215	0x3ecac000	0.3959961

StatefulPartitionedCall/functional_1/depthwise_conv2d_8/depthwise/ReadVariableOp:0 f4 [24, 1, 3, 3]
0	0xc0346000	-2.8183594
1	0x3fc5c000	1.5449219
2	0x40192000	2.3925781
3	0xc089e000	-4.3085938
4	0xbffb4000	-1.9628906
5	0xc0124000	-2.2851562
6	0x3f60a000	0.8774414
7	0x3fbaa000	1.4580078
8	0x3fb98000	1.4492188
9	0x3fcf8000	1.6210938
10	0xbeda8000	-0.4267578
11	0xc02a8000	-2.6640625
12	0xbf174000	-0.5908203
13	0xbf9c4000	-1.2207031
14	0xbf97e000	-1.1865234
15	0xbeaaa000	-0.33325195
16	0xc00ce000	-2.2011719
17	0xbe158000	-0.1459961
18	0xbf29a000	-0.66259766
19	0x3e076000	0.13220215
20	0x402b0000	2.671875
21	0xbf8be000	-1.0927734
22	0x4043c000	3.0585938
23	0x4006c000	2.1054688
24	0xbf60c000	-0.8779297
25	0xbe9d6000	-0.30737305
26	0x3fa10000	1.2578125
27	0xbf862000	-1.0478516
28	0xbfffc000	-1.9980469
29	0xbf83c000	-1.0292969
30	0x3f7c8000	0.9863281
31	0x406c0000	3.6875
32	0x3fb9a000	1.4501953
33	0xbeb8a000	-0.3605957
34	0xbf4f8000	-0.8105469
35	0x3e6b4000	0.22973633
36	0x3fac6000	1.3466797
37	0x4037a000	2.8691406
38	0x3f48a000	0.7836914
39	0x3fb14000	1.3847656
40	0xc0936000	-4.6054688
41	0x3f87a000	1.0595703
42	0xbf130000	-0.57421875
43	0xbf50e000	-0.81591797
44	0x3f1aa000	0.6040039
45	0xbf4ca000	-0.7993164
46	0xc016c000	-2.3554688
47	0x3ee92000	0.45532227
48	0x3f7de000	0.9916992
49	0xbfbca000	-1.4736328
50	0x3f318000	0.6933594
51	0x3fad2000	1.3525391
52	0x4029e000	2.6542969
53	0x3faa8000	1.3320312
54	0x402f8000	2.7421875
55	0x40434000	3.0507812
56	0x3fdf0000	1.7421875
57	0x406bc000	3.6835938
58	0x40868000	4.203125
59	0x400be000	2.1855469
60	0x3fcc6000	1.5966797
61	0x40154000	2.3320312
62	0x3fbfc000	1.4980469
63	0xbf3da000	-0.74072266
64	0xbf3b2000	-0.73095703
65	0xc0064000	-2.0976562
66	0xbfdf0000	-1.7421875
67	0xbf122000	-0.5708008
68	0xbfb54000	-1.4160156
69	0xbf856000	-1.0419922
70	0x3e75e000	0.2401123
71	0xbdb18000	-0.08666992
72	0xc0046000	-2.0683594
73	0xc0570000	-3.359375
74	0xbf732000	-0.94970703
75	0xbfa5c000	-1.2949219
76	0xbf094000	-0.5361328
77	0x3f1a2000	0.6020508
78	0x3f6e8000	0.9316406
79	0x3e122000	0.1427002
80	0xbf07a000	-0.52978516
81	0x3e4dc000	0.20092773
82	0xbef8a000	-0.4855957
83	0xbf51a000	-0.81884766
84	0xbf97a000	-1.1845703
85	0xc081c000	-4.0546875
86	0xbd5dc000	-0.054138184
87	0xbf3dc000	-0.74121094
88	0xc058a000	-3.3847656
89	0xbdeb2000	-0.11480713
90	0xbe108000	-0.14111328
91	0x3eb4e000	0.35327148
92	0xbf6a6000	-0.91552734
93	0x4008e000	2.1386719
94	0xbe230000	-0.15917969
95	0xc07e8000	-3.9765625
96	0x3fda6000	1.7060547
97	0x402d6000	2.7089844
98	0x3f664000	0.89941406
99	0xbdbfc000	-0.09362793
100	0x3e81c000	0.25341797
101	0x3e97c000	0.29638672
102	0xbfe26000	-1.7685547
103	0xbf148000	-0.5800781
104	0xbfb88000	-1.4414062
105	0xc027e000	-2.6230469
106	0xc08dc000	-4.4296875
107	0xbfe56000	-1.7919922
108	0x400ec000	2.2304688
109	0x3f748000	0.9550781
110	0x3f050000	0.51953125
111	0xc05e6000	-3.4746094
112	0xbf160000	-0.5859375
113	0x3c99a000	0.018753052
114	0xbf1dc000	-0.61621094
115	0x3fb82000	1.4384766
116	0xbe2ac000	-0.16674805
117	0x3fa16000	1.2607422
118	0xc0748000	-3.8203125
119	0xbfde6000	-1.7373047
120	0x3dc28000	0.0949707
121	0x3f8ca000	1.0986328
122	0x4011c000	2.2773438
123	0x3f6e0000	0.9296875
124	0x3fc90000	1.5703125
125	0x3f9ca000	1.2236328
126	0xc0176000	-2.3652344
127	0x4017a000	2.3691406
128	0xbedd0000	-0.43164062
129	0xc03be000	-2.9355469
130	0x3de1a000	0.11016846
131	0xbf5aa000	-0.8540039
132	0xbfc4e000	-1.5380859
133	0xbf224000	-0.63378906
134	0xbf426000	-0.75927734
135	0x3fae0000	1.359375
136	0xbf800000	-1.0
137	0x3fd28000	1.6445312
138	0xbf174000	-0.5908203
139	0xc087e000	-4.2460938
140	0xbd4cc000	-0.049987793
141	0x40094000	2.1445312
142	0xc05da000	-3.4628906
143	0xbf7a4000	-0.97753906
144	0xbf57e000	-0.8432617
145	0xc03e6000	-2.9746094
146	0xbeacc000	-0.33740234
147	0xbf786000	-0.97021484
148	0xbda00000	-0.078125
149	0xbc614000	-0.013748169
150	0x3fb7c000	1.4355469
151	0x4033c000	2.8085938
152	0x3f596000	0.8491211
153	0xbda32000	-0.07965088
154	0xbef2c000	-0.4741211
155	0xbfcac000	-1.5839844
156	0xc04a8000	-3.1640625
157	0xc0884000	-4.2578125
158	0xbfa98000	-1.3242188
159	0xbedb0000	-0.42773438
160	0x3eb30000	0.34960938
161	0xbf6aa000	-0.9165039
162	0xbffaa000	-1.9580078
163	0xc0476000	-3.1152344
164	0xc01fa000	-2.4941406
165	0xbe16c000	-0.1472168
166	0xbf4fc000	-0.81152344
167	0x3f6de000	0.9291992
168	0xbe5de000	-0.2166748
169	0x3f820000	1.015625
170	0x3f83a000	1.0283203
171	0x3f0ec000	0.5576172
172	0x3fd38000	1.6523438
173	0x3fa80000	1.3125
174	0x3f9d4000	1.2285156
175	0xc0872000	-4.2226562
176	0xc00be000	-2.1855469
177	0x3dcda000	0.10040283
178	0xc03d6000	-2.9589844
179	0xbf948000	-1.1601562
180	0x3f95c000	1.1699219
181	0xbe952000	-0.29125977
182	0x404ec000	3.2304688
183	0x3ffdc000	1.9824219
184	0xbf8b6000	-1.0888672
185	0x400d4000	2.2070312
186	0x3ec80000	0.390625
187	0x3fb76000	1.4326172
188	0x40246000	2.5683594
189	0xbee96000	-0.45581055
190	0x3f050000	0.51953125
191	0x401be000	2.4355469
192	0x3f916000	1.1357422
193	0xc096e000	-4.7148438
194	0x3f01e000	0.5073242
195	0x3ff9a000	1.9501953
196	0x3fef6000	1.8701172
197	0x3f276000	0.6538086
198	0x3e366000	0.17810059
199	0x4067e000	3.6230469
200	0x3f7d2000	0.98876953
201	0xbf962000	-1.1728516
202	0xbffb4000	-1.9628906
203	0xbf772000	-0.96533203
204	0xbfe44000	-1.7832031
205	0xbfbbe000	-1.4677734
206	0xbfe64000	-1.7988281
207	0x3d82e000	0.06390381
208	0x3ed42000	0.41430664
209	0xbf1d0000	-0.61328125
210	0x3fd44000	1.6582031
211	0x409fe000	4.9960938
212	0x3f13c000	0.57714844
213	0x3f61a000	0.88134766
214	0x40456000	3.0839844
215	0x3f8e8000	1.1132812

StatefulPartitionedCall/functional_1/depthwise_conv2d_7/depthwise/ReadVariableOp:0 f4 [24, 1, 3, 3]
0	0xbfea8000	-1.8320312
1	0xc00fe000	-2.2480469
2	0xbf792000	-0.97314453
3	0xbfd60000	-1.671875
4	0xc02d8000	-2.7109375
5	0xbfce6000	-1.6123047
6	0xbea86000	-0.32885742
7	0xbfbc0000	-1.46875
8	0xbf522000	-0.8208008
9	0x3f74a000	0.9555664
10	0x3fbf8000	1.4960938
11	0x3fb88000	1.4414062
12	0x3ff1e000	1.8896484
13	0x40646000	3.5683594
14	0x3ffa2000	1.9541016
15	0x3fe4e000	1.7880859
16	0x400f4000	2.2382812
17	0x3f3fa000	0.74853516
18	0xbffa0000	-1.953125
19	0xbf9b8000	-1.2148438
20	0x3f630000	0.88671875
21	0xbfa94000	-1.3222656
22	0x3f476000	0.7788086
23	0x3ff16000	1.8857422
24	0x3f536000	0.8256836
25	0x3fb5a000	1.4189453
26	0x3f0c0000	0.546875
27	0x3ee04000	0.43798828
28	0x3fcde000	1.6083984
29	0x3ff9c000	1.9511719
30	0x3f4b0000	0.79296875
31	0x4073a000	3.8066406
32	0x403fe000	2.9980469
33	0x3f97c000	1.1855469
34	0x401e8000	2.4765625
35	0x3fba6000	1.4560547
36	0xbf09a000	-0.53759766
37	0xbf4f8000	-0.8105469
38	0xbfc30000	-1.5234375
39	0xbf8ca000	-1.0986328
40	0xc05fc000	-3.4960938
41	0xc0328000	-2.7890625
42	0xc004e000	-2.0761719
43	0xc0202000	-2.5019531
44	0xbfaa6000	-1.3310547
45	0xbd4d4000	-0.050109863
46	0x3fa72000	1.3056641
47	0x3fc9e000	1.5771484
48	0x3fb0a000	1.3798828
49	0x40706000	3.7558594
50	0x4041e000	3.0292969
51	0x3fca8000	1.5820312
52	0x404a4000	3.1601562
53	0x3fee8000	1.8632812
54	0x3fc7e000	1.5615234
55	0x40158000	2.3359375
56	0x3f846000	1.0341797
57	0x4003a000	2.0566406
58	0x403aa000	2.9160156
59	0x403ac000	2.9179688
60	0x3f1c2000	0.6098633
61	0x40014000	2.0195312
62	0x3ff3a000	1.9033203
63	0x3ee82000	0.45336914
64	0x3ff8c000	1.9433594
65	0x3fea6000	1.8310547
66	0x4016c000	2.3554688
67	0x40a14000	5.0390625
68	0x404d2000	3.2050781
69	0x401a4000	2.4101562
70	0x4081a000	4.0507812
71	0x40052000	2.0800781
72	0x3f6f0000	0.93359375
73	0xbf8f6000	-1.1201172
74	0xc0080000	-2.125
75	0x3ee60000	0.44921875
76	0xbf1a2000	-0.6020508
77	0xbf6a8000	-0.9160156
78	0x3f5cc000	0.8623047
79	0x3f210000	0.62890625
80	0xbd48a000	-0.048980713
81	0xc05da000	-3.4628906
82	0xc0868000	-4.203125
83	0xbffd2000	-1.9775391
84	0xbfe20000	-1.765625
85	0xc049e000	-3.1542969
86	0xc04fc000	-3.2460938
87	0xbf900000	-1.125
88	0xbfe5a000	-1.7939453
89	0xc0044000	-2.0664062
90	0xbf332000	-0.69970703
91	0xbf8ce000	-1.1005859
92	0xbf94a000	-1.1611328
93	0xbf8e4000	-1.1113281
94	0xc0074000	-2.1132812
95	0xbfec4000	-1.8457031
96	0xbe8ec000	-0.2788086
97	0xbec58000	-0.3857422
98	0xbef28000	-0.4736328
99	0x3f2d8000	0.6777344
100	0x3fa8e000	1.3193359
101	0x3fc1c000	1.5136719
102	0x3fd02000	1.6259766
103	0x400c6000	2.1933594
104	0x3faac000	1.3339844
105	0x3f9e8000	1.2382812
106	0x3fb8a000	1.4423828
107	0x3d6d8000	0.0579834
108	0x3fc90000	1.5703125
109	0x3f6f8000	0.9355469
110	0x3f9f0000	1.2421875
111	0x3f30e000	0.69091797
112	0x404f8000	3.2421875
113	0x401a0000	2.40625
114	0x3fcb8000	1.5898438
115	0x40078000	2.1171875
116	0x3f8f4000	1.1191406
117	0xc0068000	-2.1015625
118	0xbed18000	-0.4091797
119	0xbf96a000	-1.1767578
120	0xc0152000	-2.3300781
121	0xc0566000	-3.3496094
122	0xbfc7a000	-1.5595703
123	0xc0664000	-3.5976562
124	0xc04fe000	-3.2480469
125	0xbf99c000	-1.2011719
126	0x3f7a2000	0.9770508
127	0x400b8000	2.1796875
128	0x3fdd2000	1.7275391
129	0x403f6000	2.9902344
130	0x4092e000	4.5898438
131	0x40518000	3.2734375
132	0x4001a000	2.0253906
133	0x4052a000	3.2910156
134	0x40068000	2.1015625
135	0xc0252000	-2.5800781
136	0xbfe64000	-1.7988281
137	0x3e860000	0.26171875
138	0xbfb5c000	-1.4199219
139	0xbf848000	-1.0351562
140	0x3f802000	1.0009766
141	0x3f5a2000	0.8520508
142	0x3f6cc000	0.9248047
143	0x3f884000	1.0644531
144	0xbf9da000	-1.2314453
145	0xc013a000	-2.3066406
146	0xbe9ea000	-0.30981445
147	0xc0208000	-2.5078125
148	0xc00ec000	-2.2304688
149	0xbe41a000	-0.18908691
150	0xc0056000	-2.0839844
151	0xbfd8a000	-1.6923828
152	0xbf1e2000	-0.6176758
153	0xbe6c4000	-0.23071289
154	0xbd59a000	-0.053131104
155	0x40070000	2.109375
156	0x4000c000	2.0117188
157	0x3ff7c000	1.9355469
158	0x402a6000	2.6621094
159	0x3fd10000	1.6328125
160	0x3ff70000	1.9296875
161	0x3f24e000	0.64404297
162	0xc0066000	-2.0996094
163	0xc00fe000	-2.2480469
164	0xbf574000	-0.8408203
165	0xc0156000	-2.3339844
166	0xc03e2000	-2.9707031
167	0xbfa1c000	-1.2636719
168	0xbfbd2000	-1.4775391
169	0xbfe02000	-1.7509766
170	0xbf21e000	-0.6323242
171	0xbec10000	-0.37695312
172	0xbf98e000	-1.1943359
173	0xbf4ac000	-0.7919922
174	0xbfbf4000	-1.4941406
175	0xc03d6000	-2.9589844
176	0xbfe94000	-1.8222656
177	0xbf892000	-1.0712891
178	0xc0082000	-2.1269531
179	0xbfb14000	-1.3847656
180	0x3f88a000	1.0673828
181	0x402a0000	2.65625
182	0x3fc8e000	1.5693359
183	0x40152000	2.3300781
184	0x40816000	4.0429688
185	0x40000000	2.0
186	0x40398000	2.8984375
187	0x401d2000	2.4550781
188	0x3f61e000	0.8823242
189	0x3f80c000	1.0058594
190	0x40044000	2.0664062
191	0x4004e000	2.0761719
192	0x400b2000	2.1738281
193	0x40338000	2.8046875
194	0x3ffac000	1.9589844
195	0x3fb9c000	1.4511719
196	0x3fa58000	1.2929688
197	0x3f052000	0.52001953
198	0xbf354000	-0.7080078
199	0xbf326000	-0.69677734
200	0xbeb56000	-0.35424805
201	0xbee14000	-0.4399414
202	0xbf838000	-1.0273438
203	0xbf386000	-0.72021484
204	0xbdf70000	-0.12060547
205	0xbf408000	-0.7519531
206	0xbf048000	-0.5175781
207	0xbff56000	-1.9169922
208	0xc02a0000	-2.65625
209	0xbf8f8000	-1.1210938
210	0xc023e000	-2.5605469
211	0xc0512000	-3.2675781
212	0xbfc72000	-1.5556641
213	0xbf9d0000	-1.2265625
214	0xbfb26000	-1.3935547
215	0xbec54000	-0.3852539

StatefulPartitionedCall/functional_1/depthwise_conv2d_6/depthwise/ReadVariableOp:0 f4 [24, 1, 3, 3]
0	0x3f772000	0.96533203
1	0x3ff62000	1.9228516
2	0x3e750000	0.23925781
3	0x40078000	2.1171875
4	0x3ffbc000	1.9667969
5	0x4007a000	2.1191406
6	0x3e1aa000	0.15100098
7	0x3d4e4000	0.050354004
8	0xbf184000	-0.59472656
9	0x3e158000	0.1459961
10	0x40354000	2.8320312
11	0x3ecb6000	0.3972168
12	0x3e97e000	0.29663086
13	0x4052e000	3.2949219
14	0x3efb6000	0.4909668
15	0x3e81c000	0.25341797
16	0x3f484000	0.78222656
17	0xbfdb8000	-1.7148438
18	0x3f870000	1.0546875
19	0x3fab2000	1.3369141
20	0x3f3a8000	0.7285156
21	0x40020000	2.03125
22	0xbfc1c000	-1.5136719
23	0x3f506000	0.81396484
24	0x3f954000	1.1660156
25	0x3f514000	0.8173828
26	0x3f2ee000	0.68310547
27	0x3e89c000	0.26904297
28	0xbf2a2000	-0.6645508
29	0x3e814000	0.2524414
30	0x40030000	2.046875
31	0x40706000	3.7558594
32	0xbfda8000	-1.7070312
33	0x3fb42000	1.4072266
34	0xbf56c000	-0.8388672
35	0xbffe8000	-1.9882812
36	0x3f0f0000	0.55859375
37	0x3fcba000	1.5908203
38	0xbea72000	-0.32641602
39	0x3d822000	0.0635376
40	0x3f368000	0.7128906
41	0x40394000	2.8945312
42	0xbe8ce000	-0.27514648
43	0xbf00e000	-0.50341797
44	0x3fda6000	1.7060547
45	0xbf984000	-1.1894531
46	0xc02cc000	-2.6992188
47	0xbfefa000	-1.8720703
48	0x3dc2c000	0.09509277
49	0xbf900000	-1.125
50	0xbfd94000	-1.6972656
51	0x3f946000	1.1591797
52	0x3fcf4000	1.6191406
53	0xbd03e000	-0.032196045
54	0xbf564000	-0.83691406
55	0x3f730000	0.94921875
56	0x3fdf2000	1.7431641
57	0x3ee26000	0.44213867
58	0xc0558000	-3.3359375
59	0xbff02000	-1.8759766
60	0x3b398000	0.0028305054
61	0xc0854000	-4.1640625
62	0xbfa08000	-1.2539062
63	0xbe202000	-0.15637207
64	0xbfa16000	-1.2607422
65	0x3fb9e000	1.4521484
66	0xbf5e2000	-0.8676758
67	0x3f1f6000	0.6225586
68	0xc0c90000	-6.28125
69	0xbf870000	-1.0546875
70	0x3fc30000	1.5234375
71	0xbf0f2000	-0.55908203
72	0xbe8fa000	-0.28051758
73	0xbf126000	-0.57177734
74	0xbe964000	-0.29345703
75	0xbf282000	-0.6567383
76	0x3fcf0000	1.6171875
77	0xbf88c000	-1.0683594
78	0xc0072000	-2.1113281
79	0xbfc20000	-1.515625
80	0xbeeec000	-0.4663086
81	0xc00f0000	-2.234375
82	0xbfb32000	-1.3994141
83	0xbf900000	-1.125
84	0xbf240000	-0.640625
85	0x408ce000	4.4023438
86	0xbf2ca000	-0.6743164
87	0x3e668000	0.22509766
88	0x3e3d2000	0.18469238
89	0xbfa30000	-1.2734375
90	0x3fb90000	1.4453125
91	0xbf340000	-0.703125
92	0xbe8c0000	-0.2734375
93	0xbf970000	-1.1796875
94	0x40ba4000	5.8203125
95	0x3e2e6000	0.17028809
96	0xc01c8000	-2.4453125
97	0xbffca000	-1.9736328
98	0xbd760000	-0.060058594
99	0x3f104000	0.56347656
100	0x3f062000	0.5239258
101	0xbc82c000	-0.015960693
102	0x402f2000	2.7363281
103	0x3fb28000	1.3945312
104	0xbfa20000	-1.265625
105	0xbe8ac000	-0.2709961
106	0xbdf00000	-0.1171875
107	0xbcb62000	-0.022232056
108	0x401ec000	2.4804688
109	0x3deba000	0.11505127
110	0xbeba2000	-0.3635254
111	0x4043a000	3.0566406
112	0xbfcf6000	-1.6201172
113	0xbfc84000	-1.5644531
114	0x3f594000	0.8486328
115	0xc010a000	-2.2597656
116	0x3f5e6000	0.86865234
117	0xbf54a000	-0.8305664
118	0x3f2d0000	0.67578125
119	0xbfccc000	-1.5996094
120	0x3dd3e000	0.10345459
121	0xc0862000	-4.1914062
122	0xbff78000	-1.9335938
123	0x3ed52000	0.41625977
124	0x3da60000	0.08105469
125	0xbf2ec000	-0.6826172
126	0x3fb48000	1.4101562
127	0xbfebc000	-1.8417969
128	0xc0574000	-3.3632812
129	0x3fea6000	1.8310547
130	0x4005c000	2.0898438
131	0xc0004000	-2.0039062
132	0xbf614000	-0.8798828
133	0x401c6000	2.4433594
134	0xbf2ee000	-0.68310547
135	0xbf184000	-0.59472656
136	0xbf282000	-0.6567383
137	0x402c2000	2.6894531
138	0x3e0d4000	0.13793945
139	0xc0976000	-4.7304688
140	0x40334000	2.8007812
141	0x3f952000	1.1650391
142	0xc013e000	-2.3105469
143	0xbecf6000	-0.4050293
144	0xbe626000	-0.22106934
145	0xbff82000	-1.9384766
146	0xc05ba000	-3.4316406
147	0x40168000	2.3515625
148	0x3ee66000	0.44995117
149	0xc070a000	-3.7597656
150	0x40022000	2.0332031
151	0x407b0000	3.921875
152	0xbd132000	-0.03591919
153	0x3f902000	1.1259766
154	0x40732000	3.7988281
155	0x3fd7a000	1.6845703
156	0xbf10c000	-0.5654297
157	0x40228000	2.5390625
158	0x3f1e8000	0.6191406
159	0xc0056000	-2.0839844
160	0xbfc2c000	-1.5214844
161	0xbff88000	-1.9414062
162	0x40364000	2.8476562
163	0x4048e000	3.1386719
164	0x3eae2000	0.3400879
165	0x3f650000	0.89453125
166	0xbfd38000	-1.6523438
167	0x3f48e000	0.78466797
168	0x3ee94000	0.4555664
169	0xbe812000	-0.25219727
170	0xbfcdc000	-1.6074219
171	0xbf850000	-1.0390625
172	0x3ed44000	0.41455078
173	0x3f9e4000	1.2363281
174	0xbfb64000	-1.4238281
175	0xbfa8c000	-1.3183594
176	0x402ca000	2.6972656
177	0xbf6f0000	-0.93359375
178	0xbf644000	-0.89160156
179	0x3fd38000	1.6523438
180	0x3f6d2000	0.92626953
181	0xbf03c000	-0.51464844
182	0x3e6d6000	0.23181152
183	0x40334000	2.8007812
184	0x40494000	3.1445312
185	0x3eaee000	0.34155273
186	0x4003a000	2.0566406
187	0x3ed3a000	0.41333008
188	0x3f70a000	0.9399414
189	0x3edde000	0.4333496
190	0x3f788000	0.9707031
191	0x3febe000	1.8427734
192	0x3d162000	0.03665161
193	0x406ee000	3.7324219
194	0x3fe30000	1.7734375
195	0x3f356000	0.7084961
196	0x3fd98000	1.6992188
197	0xbe0c6000	-0.13708496
198	0xbf4c2000	-0.7973633
199	0xbf9d4000	-1.2285156
200	0x3d9de000	0.0770874
201	0x3fa88000	1.3164062
202	0x3f062000	0.5239258
203	0x3f982000	1.1884766
204	0x3f33a000	0.70166016
205	0x3fcc4000	1.5957031
206	0x3f342000	0.7036133
207	0x3f3fc000	0.74902344
208	0x4018a000	2.3847656
209	0x404b8000	3.1796875
210	0xbf7c4000	-0.98535156
211	0xbe94a000	-0.2902832
212	0x3fce8000	1.6132812
213	0xbf4ba000	-0.79541016
214	0xbfc40000	-1.53125
215	0xbf234000	-0.6376953

StatefulPartitionedCall/functional_1/depthwise_conv2d_5/depthwise/ReadVariableOp:0 f4 [24, 1, 3, 3]
0	0x3f098000	0.5371094
1	0xbf912000	-1.1337891
2	0xbf312000	-0.69189453
3	0xc0358000	-2.8359375
4	0xc08d8000	-4.421875
5	0x3f442000	0.7661133
6	0xc0194000	-2.3945312
7	0xbf1e2000	-0.6176758
8	0xbead2000	-0.33813477
9	0xbfdcc000	-1.7246094
10	0xbf9f2000	-1.2431641
11	0xbe1fc000	-0.15600586
12	0xbf2fa000	-0.68603516
13	0xc0b64000	-5.6953125
14	0xbf95c000	-1.1699219
15	0x3f58c000	0.8466797
16	0xc038e000	-2.8886719
17	0xc011e000	-2.2792969
18	0xbf4b4000	-0.7939453
19	0x3f87a000	1.0595703
20	0x3f22e000	0.63623047
21	0xbf8e0000	-1.109375
22	0x4051e000	3.2792969
23	0x400d4000	2.2070312
24	0xbf4ba000	-0.79541016
25	0x3ed22000	0.4104004
26	0x3fea0000	1.828125
27	0xbf8c0000	-1.09375
28	0xbe4a4000	-0.19750977
29	0xbf6d8000	-0.9277344
30	0xbef84000	-0.48486328
31	0xc0918000	-4.546875
32	0x3deb2000	0.11480713
33	0xbf15a000	-0.58447266
34	0xc020c000	-2.5117188
35	0xbc660000	-0.014038086
36	0x40012000	2.0175781
37	0x3fa78000	1.3085938
38	0x3f432000	0.76220703
39	0x401b0000	2.421875
40	0x40586000	3.3808594
41	0x3fbb6000	1.4638672
42	0x3f55a000	0.83447266
43	0xbe214000	-0.1574707
44	0xbe3de000	-0.1854248
45	0xbeb96000	-0.36206055
46	0xbef4c000	-0.47802734
47	0xbecd0000	-0.40039062
48	0xc0072000	-2.1113281
49	0xc0210000	-2.515625
50	0xc0942000	-4.6289062
51	0xbf38a000	-0.7211914
52	0xbf3a0000	-0.7265625
53	0x3f476000	0.7788086
54	0x3f5be000	0.8588867
55	0x3f432000	0.76220703
56	0x3fd76000	1.6826172
57	0x3d11c000	0.035583496
58	0x4012c000	2.2929688
59	0x3f960000	1.171875
60	0xc0290000	-2.640625
61	0xc05ca000	-3.4472656
62	0xbfdbc000	-1.7167969
63	0x3f542000	0.8286133
64	0xbfe0e000	-1.7568359
65	0xbe314000	-0.1730957
66	0x402ce000	2.7011719
67	0x40bdc000	5.9296875
68	0x3fac8000	1.3476562
69	0xbf932000	-1.1494141
70	0xbf5a4000	-0.85253906
71	0x3b400000	0.0029296875
72	0x401f0000	2.484375
73	0xbe860000	-0.26171875
74	0xc01dc000	-2.4648438
75	0x3ff38000	1.9023438
76	0xc0340000	-2.8125
77	0xbf9da000	-1.2314453
78	0x3fbd6000	1.4794922
79	0xbe326000	-0.17419434
80	0xbf4ba000	-0.79541016
81	0x3e9a4000	0.30126953
82	0xbe306000	-0.17224121
83	0xbf860000	-1.046875
84	0xbf350000	-0.70703125
85	0xc0c28000	-6.078125
86	0xbfbf8000	-1.4960938
87	0xbee84000	-0.45361328
88	0xbeadc000	-0.33935547
89	0xbf040000	-0.515625
90	0xbf596000	-0.8491211
91	0x40352000	2.8300781
92	0x3fe22000	1.7666016
93	0xbd870000	-0.06591797
94	0x4087a000	4.2382812
95	0xbf862000	-1.0478516
96	0x3e966000	0.29370117
97	0x3f7e0000	0.9921875
98	0xbf1e2000	-0.6176758
99	0x3e8f4000	0.27978516
100	0x3d174000	0.03692627
101	0xbe84a000	-0.2590332
102	0x40476000	3.1152344
103	0xc08a8000	-4.328125
104	0xbf8d8000	-1.1054688
105	0x3fb08000	1.3789062
106	0xbecbe000	-0.39819336
107	0xbf4a4000	-0.79003906
108	0x3fbee000	1.4912109
109	0x3f95e000	1.1708984
110	0x3f198000	0.5996094
111	0x3f240000	0.640625
112	0x400cc000	2.1992188
113	0x40088000	2.1328125
114	0xbd4ea000	-0.050445557
115	0x3e712000	0.23547363
116	0x40876000	4.2304688
117	0xc00ee000	-2.2324219
118	0x40122000	2.2832031
119	0xbe828000	-0.2548828
120	0xbdd5a000	-0.10430908
121	0x3f3e8000	0.7441406
122	0x40364000	2.8476562
123	0xbe928000	-0.2861328
124	0xbea76000	-0.3269043
125	0x3fa48000	1.2851562
126	0x3e650000	0.22363281
127	0x4067c000	3.6210938
128	0x3fff8000	1.9960938
129	0xbe8e6000	-0.27807617
130	0x40cf4000	6.4765625
131	0xbef32000	-0.47485352
132	0xbe806000	-0.25073242
133	0x3f77c000	0.96777344
134	0x3d6d8000	0.0579834
135	0x40336000	2.8027344
136	0x3e914000	0.2836914
137	0x3ffb2000	1.9619141
138	0xbe12a000	-0.14318848
139	0xc0884000	-4.2578125
140	0x3fd44000	1.6582031
141	0xbeca6000	-0.39526367
142	0xc032e000	-2.7949219
143	0xbeb0e000	-0.34545898
144	0x3cc10000	0.02355957
145	0xbf28e000	-0.65966797
146	0x4002c000	2.0429688
147	0x40462000	3.0957031
148	0x3fc0c000	1.5058594
149	0x404c4000	3.1914062
150	0xc040c000	-3.0117188
151	0xc0674000	-3.6132812
152	0xbffcc000	-1.9746094
153	0x3fa4a000	1.2861328
154	0xc0166000	-2.3496094
155	0xbf924000	-1.1425781
156	0x3dc54000	0.09631348
157	0xc044e000	-3.0761719
158	0xc037e000	-2.8730469
159	0x3f576000	0.8413086
160	0xbfdb8000	-1.7148438
161	0xbf85a000	-1.0439453
162	0x3fab0000	1.3359375
163	0x409a6000	4.8242188
164	0x3fd5c000	1.6699219
165	0xbc1c8000	-0.009552002
166	0x3f75c000	0.95996094
167	0x3feae000	1.8349609
168	0xbeb8e000	-0.36108398
169	0x3ed50000	0.41601562
170	0x3f23c000	0.63964844
171	0xbfce2000	-1.6103516
172	0xc00e8000	-2.2265625
173	0xbff32000	-1.8994141
174	0xc0198000	-2.3984375
175	0xc04a6000	-3.1621094
176	0xbf354000	-0.7080078
177	0x3d36a000	0.04458618
178	0x3f206000	0.62646484
179	0xbe092000	-0.13391113
180	0xbd1e2000	-0.038604736
181	0x3f580000	0.84375
182	0x40136000	2.3027344
183	0xbe89a000	-0.26879883
184	0xbf35c000	-0.70996094
185	0x40512000	3.2675781
186	0x3ffda000	1.9814453
187	0x3f9c0000	1.21875
188	0x3f742000	0.9536133
189	0xbf4d0000	-0.80078125
190	0x4007e000	2.1230469
191	0x4068c000	3.6367188
192	0xbf6cc000	-0.9248047
193	0xbfad2000	-1.3525391
194	0xbf50a000	-0.8149414
195	0xbf50e000	-0.81591797
196	0x3f476000	0.7788086
197	0xbe2a4000	-0.16625977
198	0xbbc64000	-0.00605011
199	0xc0110000	-2.265625
200	0xbff5c000	-1.9199219
201	0xbe406000	-0.18786621
202	0xbf984000	-1.1894531
203	0xbf73a000	-0.95166016
204	0x3e9fe000	0.31225586
205	0x3eb7c000	0.35888672
206	0x3fa66000	1.2998047
207	0x3fa86000	1.3154297
208	0x40128000	2.2890625
209	0x3ecce000	0.40014648
210	0xbca90000	-0.020629883
211	0x40a90000	5.28125
212	0x3eddc000	0.43310547
213	0xbf0d0000	-0.55078125
214	0xbfa18000	-1.2617188
215	0xbee24000	-0.44189453

StatefulPartitionedCall/functional_1/depthwise_conv2d_4/depthwise/ReadVariableOp:0 f4 [24, 1, 3, 3]
0	0x3fec2000	1.8447266
1	0x3f3a6000	0.72802734
2	0x40322000	2.7832031
3	0x3ff18000	1.8867188
4	0xbf6a0000	-0.9140625
5	0x401fc000	2.4960938
6	0x3faf0000	1.3671875
7	0x3fc0c000	1.5058594
8	0xbef12000	-0.47094727
9	0x3ca74000	0.02041626
10	0xbf8b8000	-1.0898438
11	0x3f3d0000	0.73828125
12	0xbff78000	-1.9335938
13	0xc0038000	-2.0546875
14	0xbebea000	-0.37231445
15	0xbf922000	-1.1416016
16	0xc047e000	-3.1230469
17	0xbf134000	-0.5751953
18	0xbdadc000	-0.08483887
19	0xbec76000	-0.3894043
20	0x40080000	2.125
21	0xbf272000	-0.65283203
22	0xc03f2000	-2.9863281
23	0x40168000	2.3515625
24	0xbfc6c000	-1.5527344
25	0xc013a000	-2.3066406
26	0xbf436000	-0.7631836
27	0xbf69a000	-0.91259766
28	0xc018c000	-2.3867188
29	0xbea54000	-0.3227539
30	0x402f6000	2.7402344
31	0x3f062000	0.5239258
32	0x3f0a8000	0.5410156
33	0x3e558000	0.2084961
34	0x3fc24000	1.5175781
35	0x3f43a000	0.76416016
36	0x3d6e2000	0.058135986
37	0xc0282000	-2.6269531
38	0xc0342000	-2.8144531
39	0xbeae6000	-0.34057617
40	0x3eb78000	0.35839844
41	0xbfd62000	-1.6728516
42	0xbe7c4000	-0.24633789
43	0x407ee000	3.9824219
44	0x3fe30000	1.7734375
45	0x3fad0000	1.3515625
46	0x40110000	2.265625
47	0x400ac000	2.1679688
48	0x3fac6000	1.3466797
49	0x3f948000	1.1601562
50	0x40320000	2.78125
51	0x3f500000	0.8125
52	0x3f8b0000	1.0859375
53	0x40066000	2.0996094
54	0xbf3bc000	-0.73339844
55	0x3ecd4000	0.4008789
56	0x3fb98000	1.4492188
57	0xbf6ac000	-0.9169922
58	0x3f292000	0.66064453
59	0x406c2000	3.6894531
60	0x3f670000	0.90234375
61	0x3f590000	0.84765625
62	0x3fdea000	1.7392578
63	0xbf6ba000	-0.92041016
64	0xc0356000	-2.8339844
65	0x3efa0000	0.48828125
66	0xc037a000	-2.8691406
67	0x4025a000	2.5878906
68	0x3f74e000	0.95654297
69	0x400c8000	2.1953125
70	0xbfa34000	-1.2753906
71	0x3ef68000	0.4814453
72	0x3f7de000	0.9916992
73	0x3ef46000	0.47729492
74	0x3fa18000	1.2617188
75	0x40380000	2.875
76	0x3f6de000	0.9291992
77	0x3f81e000	1.0146484
78	0xbe7d0000	-0.24707031
79	0x3f628000	0.8847656
80	0x3f78a000	0.9711914
81	0x3fbc8000	1.4726562
82	0x403d4000	2.9570312
83	0x3db94000	0.0904541
84	0xbd06e000	-0.032928467
85	0x400fe000	2.2480469
86	0x3d6ce000	0.05783081
87	0xbec72000	-0.38891602
88	0xc003a000	-2.0566406
89	0xbf156000	-0.5834961
90	0xbfc68000	-1.5507812
91	0xc089e000	-4.3085938
92	0xbee72000	-0.45141602
93	0x3e638000	0.22216797
94	0x403cc000	2.9492188
95	0xbe1ae000	-0.15124512
96	0xbe454000	-0.19262695
97	0x3f926000	1.1435547
98	0xbd3a8000	-0.045532227
99	0x3f910000	1.1328125
100	0x400aa000	2.1660156
101	0xbdd1e000	-0.10247803
102	0x3fd1e000	1.6396484
103	0x40d78000	6.734375
104	0xbf1e8000	-0.6191406
105	0x3ed22000	0.4104004
106	0xbc51e000	-0.012809753
107	0x3db48000	0.088134766
108	0x3da76000	0.081726074
109	0x3ff58000	1.9179688
110	0xbf0fe000	-0.5620117
111	0xbf11a000	-0.56884766
112	0x4051a000	3.2753906
113	0xc02a2000	-2.6582031
114	0x3e9f2000	0.31079102
115	0xbe95c000	-0.29248047
116	0xc0022000	-2.0332031
117	0x3f740000	0.953125
118	0x3f6f8000	0.9355469
119	0xbd496000	-0.04916382
120	0x3f3b6000	0.7319336
121	0xc08ea000	-4.4570312
122	0x3d6e2000	0.058135986
123	0x3ee7c000	0.45263672
124	0xbe864000	-0.26220703
125	0xbf59a000	-0.85009766
126	0x3e58c000	0.21166992
127	0x4038c000	2.8867188
128	0x3ee4a000	0.4465332
129	0xbe5b0000	-0.21386719
130	0xc0840000	-4.125
131	0xbddd0000	-0.107910156
132	0xc0176000	-2.3652344
133	0xbfa66000	-1.2998047
134	0x3e910000	0.28320312
135	0x40062000	2.0957031
136	0x3fb02000	1.3759766
137	0x3f8a0000	1.078125
138	0x400dc000	2.2148438
139	0x40396000	2.8964844
140	0x3f6c4000	0.92285156
141	0x3f8ac000	1.0839844
142	0x3f390000	0.72265625
143	0x3eaac000	0.3334961
144	0x3fc68000	1.5507812
145	0xc0584000	-3.3789062
146	0xbfde2000	-1.7353516
147	0x3faf2000	1.3681641
148	0xbf0c4000	-0.54785156
149	0xbfda0000	-1.703125
150	0x3e322000	0.1739502
151	0xbffb6000	-1.9638672
152	0xbf0d0000	-0.55078125
153	0xbec40000	-0.3828125
154	0xc003c000	-2.0585938
155	0xbbf54000	-0.007484436
156	0x3e7e2000	0.24816895
157	0xc02b0000	-2.671875
158	0x40466000	3.0996094
159	0x3d052000	0.03250122
160	0x3f6fc000	0.93652344
161	0x401c6000	2.4433594
162	0x3f460000	0.7734375
163	0x40238000	2.5546875
164	0x3e91a000	0.28442383
165	0xbf248000	-0.6425781
166	0x40224000	2.5351562
167	0x3f026000	0.50927734
168	0x3f406000	0.75146484
169	0x40220000	2.53125
170	0x3f86e000	1.0537109
171	0x3fbec000	1.4902344
172	0xbf218000	-0.6308594
173	0xbf5cc000	-0.8623047
174	0x40088000	2.1328125
175	0x4003a000	2.0566406
176	0xbf73e000	-0.9526367
177	0x3f8dc000	1.1074219
178	0x404d4000	3.2070312
179	0x3ff12000	1.8837891
180	0x3f710000	0.94140625
181	0x3dff0000	0.12451172
182	0x3e8b2000	0.27172852
183	0x3ff32000	1.8994141
184	0x40894000	4.2890625
185	0x3f608000	0.8769531
186	0xbebbe000	-0.36694336
187	0x3e8a2000	0.2697754
188	0x3f5d0000	0.86328125
189	0xbf922000	-1.1416016
190	0xbeb44000	-0.35205078
191	0x3f7b2000	0.98095703
192	0x3fb6a000	1.4267578
193	0xc00f4000	-2.2382812
194	0xbec12000	-0.37719727
195	0xc024e000	-2.5761719
196	0xc0544000	-3.3164062
197	0xbf4ae000	-0.79248047
198	0x3e954000	0.2915039
199	0xbfbce000	-1.4755859
200	0x3f552000	0.83251953
201	0xbf52e000	-0.82373047
202	0xc07b0000	-3.921875
203	0x3f2ae000	0.66748047
204	0xbf8c4000	-1.0957031
205	0x3f546000	0.82958984
206	0xbe9ee000	-0.31030273
207	0xbf28a000	-0.6586914
208	0x40080000	2.125
209	0xbf6a6000	-0.91552734
210	0xbf388000	-0.7207031
211	0x3f960000	1.171875
212	0xc0738000	-3.8046875
213	0xbf8b4000	-1.0878906
214	0xc02da000	-2.7128906
215	0xbfb92000	-1.4462891

StatefulPartitionedCall/functional_1/depthwise_conv2d_31/depthwise/ReadVariableOp:0 f4 [96, 1, 3, 3]
0	0xbdf6e000	-0.12054443
1	0x3f0b8000	0.5449219
2	0x3f14c000	0.5810547
3	0xbbe3a000	-0.0069465637
4	0x3f0c2000	0.5473633
5	0x3c472000	0.0121536255
6	0x3e07e000	0.13269043
7	0x3e516000	0.20446777
8	0x3f3ba000	0.73291016
9	0xbed44000	-0.41455078
10	0xbe1e6000	-0.15466309
11	0xbf066000	-0.52490234
12	0xbf15e000	-0.5854492
13	0x3ea08000	0.31347656
14	0x3e0f2000	0.13977051
15	0xbf262000	-0.6489258
16	0x3e9cc000	0.30615234
17	0xbf3ea000	-0.7446289
18	0xbf04a000	-0.5180664
19	0xbe910000	-0.28320312
20	0x3d26e000	0.040740967
21	0xbe748000	-0.23876953
22	0xbe2a6000	-0.16638184
23	0x3b2fe000	0.0026836395
24	0xbc3d6000	-0.011558533
25	0xbc386000	-0.011253357
26	0x3d36c000	0.0446167
27	0x3fe94000	1.8222656
28	0x3f31e000	0.6948242
29	0x3e744000	0.23852539
30	0x3f6c8000	0.9238281
31	0x3ec5a000	0.38598633
32	0x3d4c6000	0.04989624
33	0x3f64c000	0.8935547
34	0x3fca4000	1.5800781
35	0x3ee80000	0.453125
36	0x4031c000	2.7773438
37	0x3f984000	1.1894531
38	0x404b4000	3.1757812
39	0x3eb4a000	0.3527832
40	0x404f0000	3.234375
41	0x3f37a000	0.71728516
42	0x40240000	2.5625
43	0x3f34c000	0.7060547
44	0x3fe7a000	1.8095703
45	0x3fee0000	1.859375
46	0x3f1f6000	0.6225586
47	0x3fbc8000	1.4726562
48	0x3f3aa000	0.7290039
49	0x3f17e000	0.5932617
50	0x3fdf8000	1.7460938
51	0x400dc000	2.2148438
52	0x3fafc000	1.3730469
53	0x3fe7c000	1.8105469
54	0xbed62000	-0.4182129
55	0x3e394000	0.1809082
56	0xbdd66000	-0.10467529
57	0xbe976000	-0.2956543
58	0x3e8ca000	0.2746582
59	0xbea84000	-0.32861328
60	0x3cc04000	0.023468018
61	0x3e7d8000	0.2475586
62	0xbc768000	-0.015045166
63	0x3f29c000	0.66308594
64	0x3df18000	0.11791992
65	0xbed40000	-0.4140625
66	0x3f10a000	0.5649414
67	0xbf2d2000	-0.67626953
68	0xbf14e000	-0.58154297
69	0xbef1c000	-0.47216797
70	0x3f7ee000	0.99560547
71	0xbe874000	-0.26416016
72	0xc025a000	-2.5878906
73	0xc0446000	-3.0683594
74	0xc080e000	-4.0273438
75	0xbfc86000	-1.5654297
76	0xbfbda000	-1.4814453
77	0xbf4ae000	-0.79248047
78	0xbfd3e000	-1.6552734
79	0xbfb1c000	-1.3886719
80	0xbfb7c000	-1.4355469
81	0xc0b3a000	-5.6132812
82	0xc0688000	-3.6328125
83	0xc0d02000	-6.5039062
84	0xc014e000	-2.3261719
85	0xbfc46000	-1.5341797
86	0xbfef2000	-1.8681641
87	0xc0c86000	-6.2617188
88	0xc08dc000	-4.4296875
89	0xc0c7a000	-6.2382812
90	0xc0330000	-2.796875
91	0xbf3b0000	-0.73046875
92	0xbf47a000	-0.77978516
93	0xbd7b0000	-0.061279297
94	0x400a8000	2.1640625
95	0xbf222000	-0.6333008
96	0xbf834000	-1.0253906
97	0x3eb3c000	0.35107422
98	0xbf9ec000	-1.2402344
99	0xbfc18000	-1.5117188
100	0x3f700000	0.9375
101	0xc0176000	-2.3652344
102	0xbf1cc000	-0.6123047
103	0x4041c000	3.0273438
104	0xbfd88000	-1.6914062
105	0x3f22c000	0.6357422
106	0x402ae000	2.6699219
107	0xbd806000	-0.062683105
108	0x410c4000	8.765625
109	0xc0984000	-4.7578125
110	0x40a9e000	5.3085938
111	0x40a18000	5.046875
112	0xc0d50000	-6.65625
113	0x4014e000	2.3261719
114	0x40ade000	5.4335938
115	0xc080a000	-4.0195312
116	0x40348000	2.8203125
117	0x3f8e6000	1.1123047
118	0x3ebd6000	0.36987305
119	0x3cd7c000	0.02633667
120	0x3f9b0000	1.2109375
121	0x3e982000	0.29711914
122	0xbe330000	-0.17480469
123	0x3ca38000	0.019958496
124	0x3e0de000	0.1385498
125	0xbe656000	-0.22399902
126	0x3f776000	0.9663086
127	0x3edb8000	0.42871094
128	0x3ecce000	0.40014648
129	0x3e248000	0.16064453
130	0xbfccc000	-1.5996094
131	0xbf048000	-0.5175781
132	0x3e9f4000	0.31103516
133	0xbf6e4000	-0.93066406
134	0x3edd8000	0.4326172
135	0x414e8000	12.90625
136	0x416d2000	14.8203125
137	0x416c2000	14.7578125
138	0x4113c000	9.234375
139	0x41496000	12.5859375
140	0x413f8000	11.96875
141	0x40fc4000	7.8828125
142	0x416ea000	14.9140625
143	0x4123c000	10.234375
144	0xbfaa6000	-1.3310547
145	0xbe8c0000	-0.2734375
146	0xbeb8a000	-0.3605957
147	0xbfcf4000	-1.6191406
148	0xbf01a000	-0.50634766
149	0x3de5e000	0.11224365
150	0x3db22000	0.0869751
151	0xbe7ec000	-0.2487793
152	0xbd91c000	-0.07116699
153	0x3f6d6000	0.9272461
154	0xc0e22000	-7.0664062
155	0x3f362000	0.7114258
156	0x3fd8a000	1.6923828
157	0xc0d6c000	-6.7109375
158	0xbe84c000	-0.25927734
159	0x40802000	4.0039062
160	0xbf54a000	-0.8305664
161	0x3f9ec000	1.2402344
162	0xbe91c000	-0.28466797
163	0xbfd2a000	-1.6455078
164	0xbfce8000	-1.6132812
165	0x3eb5a000	0.35473633
166	0xbedb8000	-0.42871094
167	0x3d00e000	0.031463623
168	0xbcfce000	-0.03086853
169	0xbec48000	-0.38378906
170	0x3da14000	0.07873535
171	0x3f89e000	1.0771484
172	0x3f81e000	1.0146484
173	0x3e86a000	0.26293945
174	0xbec6c000	-0.3881836
175	0xbf13e000	-0.5776367
176	0xc02f0000	-2.734375
177	0x3f5c8000	0.8613281
178	0x3f94a000	1.1611328
179	0xbc28a000	-0.010292053
180	0xbfd10000	-1.6328125
181	0xbde00000	-0.109375
182	0xbe572000	-0.21008301
183	0x3f77e000	0.9682617
184	0x400d6000	2.2089844
185	0x3c5aa000	0.013343811
186	0xc02c0000	-2.6875
187	0xbf186000	-0.59521484
188	0xbf3c6000	-0.73583984
189	0x3fb7c000	1.4355469
190	0xc0092000	-2.1425781
191	0xc04d2000	-3.2050781
192	0xc0806000	-4.0117188
193	0xc0636000	-3.5527344
194	0xc0342000	-2.8144531
195	0x40018000	2.0234375
196	0xbf842000	-1.0322266
197	0x40030000	2.046875
198	0x3f2f0000	0.68359375
199	0xbe7d4000	-0.24731445
200	0x3dbc6000	0.09197998
201	0x3f806000	1.0029297
202	0x3f498000	0.7871094
203	0xbdda8000	-0.10668945
204	0x3ec9a000	0.39379883
205	0xbe258000	-0.1616211
206	0x3e95a000	0.29223633
207	0xc0186000	-2.3808594
208	0x3fe16000	1.7607422
209	0xc00b8000	-2.1796875
210	0x3f5ac000	0.8544922
211	0x406a0000	3.65625
212	0xba9a6000	-0.0011777878
213	0xc0166000	-2.3496094
214	0x3e9d0000	0.30664062
215	0xbf9e2000	-1.2353516
216	0x3fc06000	1.5029297
217	0x3f168000	0.5878906
218	0xbf80e000	-1.0068359
219	0x3fb16000	1.3857422
220	0x3fc8e000	1.5693359
221	0xbec2a000	-0.38012695
222	0xc0370000	-2.859375
223	0xc0546000	-3.3183594
224	0xc0660000	-3.59375
225	0xc00f8000	-2.2421875
226	0xc0090000	-2.140625
227	0xbdaa8000	-0.08325195
228	0xbf846000	-1.0341797
229	0x3e3d0000	0.18457031
230	0xbfa4a000	-1.2861328
231	0xbf898000	-1.0742188
232	0xc0084000	-2.1289062
233	0x3f41e000	0.7573242
234	0x3c710000	0.014709473
235	0xbf63e000	-0.8901367
236	0xbe0b8000	-0.13623047
237	0xbef7e000	-0.48413086
238	0xbf31c000	-0.69433594
239	0xbe0ca000	-0.1373291
240	0xbeb4c000	-0.35302734
241	0xbea88000	-0.32910156
242	0xbe3aa000	-0.18225098
243	0xbdb6e000	-0.08929443
244	0x3ed6a000	0.41918945
245	0xbe828000	-0.2548828
246	0xbfbbc000	-1.4667969
247	0x3d816000	0.06317139
248	0xbf4be000	-0.7963867
249	0xbd00a000	-0.031402588
250	0x3e95a000	0.29223633
251	0xbd6fa000	-0.058502197
252	0x4006c000	2.1054688
253	0xbff38000	-1.9023438
254	0x3edc0000	0.4296875
255	0x3d7d8000	0.06188965

StatefulPartitionedCall/functional_1/depthwise_conv2d_30/depthwise/ReadVariableOp:0 f4 [96, 1, 3, 3]
0	0x3e9d0000	0.30664062
1	0xc0782000	-3.8769531
2	0xc0a20000	-5.0625
3	0xbeb1a000	-0.34692383
4	0xc0116000	-2.2714844
5	0xc0242000	-2.5644531
6	0xc0744000	-3.8164062
7	0xc0480000	-3.125
8	0xc02a0000	-2.65625
9	0x3fb2a000	1.3955078
10	0x3f0b8000	0.5449219
11	0xbca44000	-0.020050049
12	0x3fd48000	1.6601562
13	0x3f506000	0.81396484
14	0x3fec6000	1.8466797
15	0x3fbd2000	1.4775391
16	0x3fcbc000	1.5917969
17	0x3fbf2000	1.4931641
18	0xbe9b2000	-0.30297852
19	0xbf47a000	-0.77978516
20	0x3d828000	0.0637207
21	0x3ff52000	1.9150391
22	0x40f42000	7.6289062
23	0xbeb48000	-0.35253906
24	0x3f64c000	0.8935547
25	0x402fc000	2.7460938
26	0xbecf8000	-0.40527344
27	0xbf1b0000	-0.60546875
28	0x40066000	2.0996094
29	0x3fdf8000	1.7460938
30	0xbfe24000	-1.7675781
31	0x4063e000	3.5605469
32	0x402ec000	2.7304688
33	0xbec50000	-0.38476562
34	0xbf4e8000	-0.8066406
35	0x3eddc000	0.43310547
36	0xc0986000	-4.7617188
37	0x3f6ca000	0.9243164
38	0x40700000	3.75
39	0x3f318000	0.6933594
40	0xc04fc000	-3.2460938
41	0x40608000	3.5078125
42	0x40b4c000	5.6484375
43	0x405be000	3.4355469
44	0x40e70000	7.21875
45	0x40008000	2.0078125
46	0x40866000	4.1992188
47	0x3f9f4000	1.2441406
48	0x40854000	4.1640625
49	0x41396000	11.5859375
50	0x3ec0e000	0.37670898
51	0xbee98000	-0.4560547
52	0xbe34c000	-0.17651367
53	0xbed2e000	-0.41186523
54	0x3d1f4000	0.038879395
55	0x3e00c000	0.12573242
56	0xbe8ce000	-0.27514648
57	0x3d64a000	0.05581665
58	0xc0a7e000	-5.2460938
59	0xbe840000	-0.2578125
60	0x3d5f8000	0.05456543
61	0x3ce36000	0.027755737
62	0x3e5d0000	0.21582031
63	0x3fa6c000	1.3027344
64	0x3f072000	0.52783203
65	0x3e1b4000	0.15161133
66	0x400b8000	2.1796875
67	0xbff44000	-1.9082031
68	0x3eec2000	0.46118164
69	0x402e0000	2.71875
70	0x405b4000	3.4257812
71	0x4081e000	4.0585938
72	0xc0c76000	-6.2304688
73	0xc0b48000	-5.640625
74	0xc0b88000	-5.765625
75	0xbf4e0000	-0.8046875
76	0xc0f7a000	-7.7382812
77	0xc07ca000	-3.9472656
78	0xc0500000	-3.25
79	0xc04bc000	-3.1835938
80	0xc1138000	-9.21875
81	0xbf9cc000	-1.2246094
82	0x40142000	2.3144531
83	0x3fb18000	1.3867188
84	0x400ae000	2.1699219
85	0x40210000	2.515625
86	0x40146000	2.3183594
87	0xbf520000	-0.8203125
88	0x40294000	2.6445312
89	0x3fa4c000	1.2871094
90	0x3fbf2000	1.4931641
91	0x4001c000	2.0273438
92	0x3f9f2000	1.2431641
93	0x3fdfa000	1.7470703
94	0x406a6000	3.6621094
95	0x3fda4000	1.7050781
96	0x3fb4e000	1.4130859
97	0x3ff10000	1.8828125
98	0xbe140000	-0.14453125
99	0xbe968000	-0.2939453
100	0x3fe60000	1.796875
101	0xbe20c000	-0.15698242
102	0xbf39c000	-0.72558594
103	0x404a2000	3.1582031
104	0xbf7cc000	-0.9873047
105	0xbe86c000	-0.2631836
106	0x3f628000	0.8847656
107	0xbed9a000	-0.42504883
108	0xbf684000	-0.90722656
109	0xc001e000	-2.0292969
110	0x3ffaa000	1.9580078
111	0xbf2b6000	-0.6694336
112	0xc07e2000	-3.9707031
113	0x3f974000	1.1816406
114	0xbf410000	-0.75390625
115	0xc0830000	-4.09375
116	0xbeec6000	-0.46166992
117	0xbdd28000	-0.1027832
118	0x3f428000	0.7597656
119	0xbe0d0000	-0.13769531
120	0x3eaa4000	0.33251953
121	0x40e90000	7.28125
122	0xbf038000	-0.5136719
123	0x3e078000	0.13232422
124	0xbe3cc000	-0.18432617
125	0x3dcca000	0.09991455
126	0x3df9a000	0.12188721
127	0x3fd64000	1.6738281
128	0x404b6000	3.1777344
129	0x3e396000	0.18103027
130	0x3fe62000	1.7978516
131	0x408b4000	4.3515625
132	0x3e2ae000	0.16687012
133	0x3f98c000	1.1933594
134	0x4007e000	2.1230469
135	0xc09a6000	-4.8242188
136	0xbd510000	-0.05102539
137	0x40a28000	5.078125
138	0xc0bda000	-5.9257812
139	0x405d2000	3.4550781
140	0x40a1a000	5.0507812
141	0xc0cd2000	-6.4101562
142	0xc0838000	-4.109375
143	0xbed96000	-0.42456055
144	0x3e890000	0.26757812
145	0xbfe3e000	-1.7802734
146	0xbe44a000	-0.1920166
147	0xbe9a0000	-0.30078125
148	0xc03ce000	-2.9511719
149	0xbf724000	-0.94628906
150	0xbeee6000	-0.46557617
151	0xc02d6000	-2.7089844
152	0xbec74000	-0.38916016
153	0xbf9f6000	-1.2451172
154	0xbfeda000	-1.8564453
155	0xbe86c000	-0.2631836
156	0xbf68c000	-0.9091797
157	0xc0bc8000	-5.890625
158	0x3f102000	0.5629883
159	0xbf288000	-0.6582031
160	0xbf97a000	-1.1845703
161	0xbd468000	-0.048461914
162	0xc038a000	-2.8847656
163	0xbf1c8000	-0.6113281
164	0xbf996000	-1.1982422
165	0xc02d2000	-2.7050781
166	0xc0c18000	-6.046875
167	0xbea4c000	-0.32177734
168	0xc089e000	-4.3085938
169	0xbf75e000	-0.9604492
170	0xbf7f4000	-0.9970703
171	0x3f136000	0.5756836
172	0x40284000	2.6289062
173	0x40188000	2.3828125
174	0xc0100000	-2.25
175	0x40646000	3.5683594
176	0x40522000	3.2832031
177	0xbf3ac000	-0.7294922
178	0x3f164000	0.58691406
179	0x3fb5c000	1.4199219
180	0x408d8000	4.421875
181	0x40c16000	6.0429688
182	0x4026e000	2.6074219
183	0x4081e000	4.0585938
184	0x410f0000	8.9375
185	0x404fc000	3.2460938
186	0x3faaa000	1.3330078
187	0x3f644000	0.89160156
188	0xbf034000	-0.5126953
189	0xbef5c000	-0.47998047
190	0xbc302000	-0.010749817
191	0x3ebe2000	0.3713379
192	0x3fe26000	1.7685547
193	0xc0b50000	-5.65625
194	0x3feb4000	1.8378906
195	0x406f8000	3.7421875
196	0x3fa40000	1.28125
197	0x3ff2a000	1.8955078
198	0xbebee000	-0.37280273
199	0x3c8f0000	0.017456055
200	0xbc048000	-0.008087158
201	0xbfb78000	-1.4335938
202	0xc029e000	-2.6542969
203	0xbe754000	-0.23950195
204	0xbf384000	-0.71972656
205	0xbfa9a000	-1.3251953
206	0xbef32000	-0.47485352
207	0x3fbb8000	1.4648438
208	0x400ba000	2.1816406
209	0x3fe5c000	1.7949219
210	0x4034a000	2.8222656
211	0x404a4000	3.1601562
212	0x40380000	2.875
213	0x3f386000	0.72021484
214	0x3fcc2000	1.5947266
215	0x3fb1c000	1.3886719
216	0x3ebee000	0.37280273
217	0x3f874000	1.0566406
218	0x3f116000	0.5678711
219	0x3fb36000	1.4013672
220	0xc041c000	-3.0273438
221	0x3faea000	1.3642578
222	0x3f7fe000	0.9995117
223	0x3fad4000	1.3535156
224	0x3f04e000	0.51904297
225	0x40178000	2.3671875
226	0x4012a000	2.2910156
227	0x4033e000	2.8105469
228	0x3f274000	0.6533203
229	0x40e62000	7.1914062
230	0x3f086000	0.53271484
231	0x3ee72000	0.45141602
232	0xbeb78000	-0.35839844
233	0x3fad4000	1.3535156
234	0xbf382000	-0.7192383
235	0xbf6de000	-0.9291992
236	0xbf93c000	-1.1542969
237	0xbf16c000	-0.5888672
238	0xc02aa000	-2.6660156
239	0xc0184000	-2.3789062
240	0xbf8ee000	-1.1162109
241	0xc01c0000	-2.4375
242	0xbe69e000	-0.22839355
243	0x40d28000	6.578125
244	0x40b92000	5.7851562
245	0x409a2000	4.8164062
246	0x408ca000	4.3945312
247	0xbf86c000	-1.0527344
248	0x4006a000	2.1035156
249	0x3f814000	1.0097656
250	0xbee1c000	-0.44091797
251	0x3f872000	1.0556641
252	0xc05b8000	-3.4296875
253	0xc0a28000	-5.078125
254	0xc061a000	-3.5253906
255	0xc0428000	-3.0390625
